MLAgentsFB/Assets/MLAgents_FlappyBird/FlappyBird_4.onnx (onnx, 91137 bytes, 6 tensors)

distribution.branches.0.bias f4 [2]
00000000: d1dc 063d d1dc 06bd
0.03292543 -0.03292543

distribution.branches.0.weight f4 [2, 128]
00000000: e0ea e83c df0e 773d 33e5 b1bd cedf 4c3d
00000010: 555d 863d 3380 373d 441a 133c 1138 543d
00000020: af14 773d bc0d d53d 8540 743d 9ba2 30bd
00000030: d322 0ebd cef3 b2bd 1fbf 153e 34d3 f43d
00000040: 024b ddbd abeb 7d3d f7b9 323d 3568 843d
00000050: e946 a4bc fecf 2c3e c14f 423d e6e9 6d3d
00000060: 3c91 a03d eb80 46bc d0ec 863d d5cb b6bd
00000070: 7740 d73d 3554 44bd 842f 6bbd f374 8cbd
00000080: cea4 bbbd 0de0 ae3d 6ed4 e1bb 3a8b 4fbd
00000090: 060a 773d 3a4f 003d 6838 d93a f465 8c3d
000000a0: cbfc 903d defa 8cbd 64c5 b23c 0e8a 803d
000000b0: 6ac2 aebb 2633 953d c87c 74bd 1b2a a13d
000000c0: 5915 80bd a7cd 9a3d fe77 913d 64b9 c33d
000000d0: 0f22 ac3d c0ae 61bd ef9b 353d 529e 943d
000000e0: 5182 7a3d 3248 9cbd eb19 b53d eb16 933d
000000f0: 1658 4d3d b7a2 34ba 1494 8fbd e7c3 06bc
00000100: 075a 23bd 178b 0ebd b7bf 273d 33bc b73c
00000110: 9ab0 353d 726f 213a d1b6 67bd d7a1 62ba
00000120: 312b 9bbc 3833 e43a 991d 0c3d 6656 4fbd
00000130: 1bf2 31bd b2ac abbd 61f7 9a3c eeb5 953d
00000140: 27cd 703d 314f c9bc f112 633d 24b2 cdbd
00000150: f840 8eb8 bf7c 1cbb 21fa 323d 9ace fcbb
00000160: 481b 843d aa26 dd3d f314 4e3d 2137 b2bd
00000170: e181 d2bd 5df6 6cbd 1034 41bd 0ca8 343d
00000180: 3e53 8d3d 3d45 e83d af06 85bd 1569 d23c
00000190: 1e5c 003e 9263 09bd 9cba 40bd 1cbe 88bd
000001a0: 0d27 abbd e2e1 ad3d 6da9 a5bc 5ec8 a5bc
000001b0: 1e7d 8e3d 0b97 0abd ff56 463d de0a b53d
000001c0: 6de9 3ebd fcf4 0f3b 5529 d83b d636 acbd
000001d0: ebf4 29bd e7e5 19bd 63be c53d a5ed 543b
000001e0: 0278 763d 315e b6bd a66d 7bbd 06f3 623d
000001f0: a7ef a03d 51c3 0d3e fcba 33bd aeaf c1bc
00000200: 8d1f dcbc ca44 80bd 33e2 6d3d cb01 4fbd
00000210: cbee 40bd 1cdf 3abd 99de 483c 2a76 57bd
00000220: dfcc a0bd 8426 e6bd e958 87bd 4ccd 183d
00000230: 97af 1a3d 4cc4 aa3d 83b0 10be 03cf c1bd
00000240: 7f99 ea3d 0ccc 23bd fb06 7ebd 0941 86bd
00000250: 4461 4abc 60db 2cbe 1a26 37bd b5dd 50bd
00000260: b8a3 84bd 03d8 17bb c72e 74bd 5211 933d
00000270: e841 d1bd 1d9d 7e3d 075d 763d 0120 933d
00000280: ae13 893d 60c5 afbd dd17 0e3b f317 483d
00000290: e6fa 8ebd c841 11bd fcc0 de3b 2314 8fbd
000002a0: 7fe6 86bd dda6 633d 5793 dfbc 935a 45bd
000002b0: b0d2 35bb ffce a5bd 0d8b 983d 6bf9 a2bd
000002c0: 78b8 a93d 548d b1bd 3fe3 89bd 5f73 e1bd
000002d0: 5cd6 b8bd 7e0e 3e3d e565 19bd 2c5c 16bd
000002e0: 767d 16bd c854 b63d 0a78 c1bd 85f3 9cbd
000002f0: 8982 4ebd 5d7a c6bb 2597 9d3d 69b3 90bc
00000300: 8602 ed3c 3cf8 d73c 83e2 5abc 4510 81bd
00000310: c721 5bbd e2d4 0c3b 1092 463d ca4c 343b
00000320: 6758 553c a9ef 67bb 1d4c e4bc 0be4 713d
00000330: c25a 3e3d 35b9 963d 414b d9bb 46bb 87bd
00000340: cfa3 5abd a737 093d 6df1 88bd 2cb9 df3d
00000350: ca97 babb 014d 043d ec95 2ebd a971 7d3b
00000360: 2ec9 40bd d003 c6bd ac22 52bd b1ae b23d
00000370: 99fc c33d 7d5a 9a3d 9e97 623d d628 1cbd
00000380: 1cb8 b1bd fcac e1bd 9b71 753d 0f71 babc
00000390: 846a 0cbe 845d cf3c f2fe 543d 0f86 8e3d
000003a0: 209a 963d fffe 8cbd 9ba7 303c d8cb b13c
000003b0: fd1b 48bd b0f3 9f3c 8c66 dabc 36ce 97bd
000003c0: a035 2f3d 7084 0a3b b493 1c3c 7518 a73d
000003d0: aef8 cd3c 3fcc 2b3d 1a5b bebd b8ce a4bb
000003e0: 57e6 99bd 368a b63d 1d3c 973d ebdf 4bbd
000003f0: 1649 8bbd 0b63 0bbe 39dd dc3c 928d a9b9
0.02843231 0.060316917 -0.086862944 0.050018124 0.065607704 0.044799995 0.00897843 0.05181128
0.06032246 0.1040301 0.059631843 -0.043123823 -0.03470118 -0.08737908 0.14623688 0.11954346
-0.10805322 0.06199233 0.04363438 0.064651884 -0.020053344 0.16876218 0.04743934 0.05808439
0.07840201 -0.012115697 0.06588137 -0.089255966 0.105103426 -0.04793187 -0.05741836 -0.06858244
-0.091622934 0.08538828 -0.0068917787 -0.050669886 0.060312293 0.031325556 0.0016572597 0.068553835
0.070794664 -0.068837866 0.021822639 0.06276332 -0.0053332346 0.072851464 -0.059689313 0.07869359
-0.06254072 0.07558756 0.07102965 0.09556845 0.08404934 -0.055098295 0.044338163 0.0725676
0.061159436 -0.07630958 0.08842834 0.07182106 0.050132833 -0.00068907015 -0.070106655 -0.008225418
-0.03988078 -0.034800615 0.040954318 0.022428608 0.044357873 0.0006158269 -0.05657083 -0.0008645332
-0.018941494 0.0017410284 0.034207914 -0.050619505 -0.04344378 -0.083825484 0.018916788 0.07310091
0.0587894 -0.024573894 0.055437986 -0.10043743 -6.783189e-05 -0.0023878065 0.043695573 -0.0077150585
0.06450516 0.1079839 0.050312947 -0.08701921 -0.10278679 -0.057852138 -0.04716879 0.044105574
0.06900643 0.11341331 -0.064954154 0.025684873 0.1253514 -0.033542223 -0.047052965 -0.066768855
-0.08357058 0.08490349 -0.02022239 -0.020237144 0.06957458 -0.033835452 0.04842281 0.088399634
-0.04660933 0.002196609 0.006596724 -0.084088966 -0.041493338 -0.037572768 0.09655454 0.003249028
0.060173042 -0.08904684 -0.061383866 0.055407546 0.0785821 0.13844039 -0.043879494 -0.02364334
-0.026870513 -0.062631205 0.05807705 -0.05053882 -0.04710273 -0.04562293 0.012260103 -0.052602924
-0.07851576 -0.11237815 -0.06608755 0.03730516 0.03776511 0.08338222 -0.14129834 -0.094633125
0.11455058 -0.039989516 -0.062018376 -0.06555373 -0.0123522915 -0.1688056 -0.04471407 -0.050992686
-0.064765394 -0.0023169525 -0.059614923 0.07181038 -0.10217649 0.062161554 0.06014731 0.07183839
0.06693207 -0.08582568 0.0021681704 0.048850965 -0.06981449 -0.035463125 0.006797908 -0.06986263
-0.065869324 0.055579055 -0.027291937 -0.04818208 -0.0027743988 -0.08096122 0.07448397 -0.07957729
0.08287138 -0.08669534 -0.06732797 -0.110083334 -0.09025261 0.04640054 -0.03745069 -0.036708996
-0.036740743 0.089028895 -0.09446724 -0.07663635 -0.050417457 -0.0060570673 0.07694844 -0.017663674
0.028931867 0.026363485 -0.013359669 -0.06301931 -0.05349901 0.0021489193 0.04847914 0.002751159
0.013021565 -0.0035390651 -0.027868325 0.05905537 0.046473272 0.07359544 -0.0066312854 -0.066275164
-0.053378876 0.03350034 -0.06686673 0.109239906 -0.005694364 0.0323 -0.042623445 0.0038672483
-0.04706686 -0.09668696 -0.051302597 0.08724726 0.095696636 0.075367905 0.055320375 -0.03812488
-0.08677694 -0.11019322 0.059922796 -0.022758989 -0.13712507 0.025313146 0.052000947 0.069591634
0.07353616 -0.06884574 0.010782148 0.021703646 -0.048854817 0.019525379 -0.026660226 -0.074123785
0.04277575 0.0021136068 0.0095567 0.08158962 0.025142994 0.04194283 -0.0929472 -0.0050295256
-0.07514637 0.089130804 0.073845126 -0.04977409 -0.068010494 -0.13612 0.026960956 -0.0003233967

network_body.linear_encoder.seq_layers.0.bias f4 [128]
00000000: a850 683d 1aaa cfbc abd6 e83c 5112 b03b
00000010: 03ab 84bc 59de 8c3d 4e0c 02bb 82bb 353c
00000020: 5ceb 093d 12ba 493c bf99 083d 5cf2 f23c
00000030: 0c2c 2a3d fc23 34bc 37ed 313d 46ee 213d
00000040: 2401 c83b 0a37 4b3d d882 b0bc 1ef7 d3bc
00000050: b6c5 6abc 8e5f 65bc 7284 f23c 07a4 c33c
00000060: a900 ec3c a550 0cbc 5318 d73c b201 343d
00000070: b1aa c73d f849 9b3d effa c63c c766 6e3c
00000080: c65f 2abc 8c5a 19bb 7218 00bb 3eda 67ba
00000090: ac36 19bc 723a 463c 407b f13c a370 7b3d
000000a0: fc4a 9a3c 02cc 783c f34b 433d 5403 333d
000000b0: e452 8e3c 5c4e 353d bfc0 01bc 8b68 b03c
000000c0: 45c4 a3bb 4d3d 283d d4d5 ec3b 9be5 e33c
000000d0: e1c3 313a 3383 953d e814 3e3c ae14 b73c
000000e0: 651a 9e3c 9287 8bbd 5190 153d aac0 473c
000000f0: 634c 82bc 53d4 3a3d cae6 e7bb 1777 e5bc
00000100: d37f c2b9 6af6 163d eff5 bc3c 7364 a8bc
00000110: 372f ac3c af43 163d a89a e9b9 fd3b 1dbc
00000120: f835 363d 1da7 fc3c 5d57 993b 291a 553c
00000130: 64b2 533b 5bee 2dbd b828 d33c 4cab a1bc
00000140: 3bab 07bd be41 fe3b 785b 15bb b454 943d
00000150: 4b5e 9bbc 3deb a03b 8c0a 5f3d 0ecd fe3b
00000160: d0cb 07bd ca88 f43c 504c b93b 21b9 9c3c
00000170: ebbf 3b3b c7ce 20bd 0390 883b 5b83 89bc
00000180: 29af 073d b62a 513c 231f c93b 8cdc a6bc
00000190: e19f 173d 5380 863c 44b4 5b3c fafc 073d
000001a0: f60e 2e3b 2c14 893d f7de d93b feaf 993d
000001b0: 5ad4 a8bc 5cd1 bd3c 1811 04bd 5fde b23c
000001c0: 4ba7 073d 39a9 023c 7a75 b63c 255f 2fbd
000001d0: 8871 413d e9ae 0c3d 1fa3 013d 3a81 bcbb
000001e0: 957c 0f3c 3fa8 793d 21b6 2d3d 37e5 54bc
000001f0: 5b51 f13c 5929 083c 9db8 0f3d 408b 303c
0.056717545 -0.025349665 0.028422674 0.0053732772 -0.016194826 0.06878347 -0.001984376 0.011092069
0.03367172 0.012312429 0.03334975 0.029656582 0.041545913 -0.0109949075 0.043439116 0.039533876
0.0061036516 0.049613036 -0.021546766 -0.02587467 -0.0143293645 -0.013999833 0.02960417 0.023881925
0.028808909 -0.008564149 0.026256716 0.04394693 0.09749354 0.07582468 0.024289576 0.014550871
-0.010398811 -0.0023399917 -0.001954582 -0.00088444713 -0.009351414 0.012098895 0.029477715 0.061386716
0.018834583 0.015185358 0.047679853 0.043704346 0.01737351 0.044264182 -0.007919489 0.021534225
-0.0049977624 0.041074086 0.0072276387 0.027819445 0.00067812024 0.07300415 0.011601664 0.022348728
0.019299695 -0.06812967 0.036514584 0.012191931 -0.015905565 0.045612644 -0.0070770727 -0.028010888
-0.000370978 0.036856093 0.023066489 -0.02055571 0.021018608 0.03668564 -0.0004455645 -0.009596822
0.044485062 0.030841405 0.004679604 0.013006725 0.0032302374 -0.04246364 0.025776252 -0.019735001
-0.033122282 0.007759302 -0.0022790115 0.07242718 -0.01896586 0.004910855 0.054453418 0.0077759093
-0.033153355 0.029850382 0.005654849 0.019131245 0.0028648328 -0.0392597 0.004167558 -0.016786268
0.03312603 0.012766531 0.006137745 -0.020368837 0.037017707 0.016418612 0.013409678 0.03320024
0.002655921 0.066933006 0.006648894 0.07504271 -0.02060907 0.02317112 -0.032242864 0.02183455
0.033118527 0.007974916 0.022272814 -0.042815346 0.047227412 0.034346495 0.031649705 -0.0057527097
0.00875773 0.060951468 0.04241002 -0.012994102 0.029457739 0.008310639 0.03508817 0.010775387

network_body.linear_encoder.seq_layers.0.weight f4 [128, 42]
00000000: d978 943b f9a8 efbd f1a6 543d 8a53 833d
00000010: edd1 08be 6dd9 4ebe a962 8c3e 9663 893d
00000020: 258d f53c daa0 28bd 6b47 a53e 352c 473e
00000030: 75a9 b5bd 6be1 d9bd b94b fb3d a510 91bd
00000040: 8a72 21be ed57 a73d d6e9 f2be 39a4 22be
00000050: 54b5 93bd caec 0e3d d750 8a3d ee1a 933d
00000060: 0a61 d33d 1f0f cfbd 94d0 483d 8289 653d
00000070: 0860 883e 4e05 46be e3cd 5ebe abe9 deba
00000080: 5da6 ee3d 556d aa3d 39b8 2cbe a8f9 c23e
00000090: 9ea9 1f3b dc73 a6bd 1b18 51be 25a4 0b3e
000000a0: 6683 1b3e fc4f fb3d fafb 8f3e d440 463e
000000b0: 9b9d 6abd f677 ffbc 224c 83be f445 db3d
000000c0: fe68 fbbd d13a a43c b30c 12bd 39d4 a53d
000000d0: 1d09 0abe bd59 56bd b608 683e 5b76 24be
000000e0: 3fe1 7abe 4a03 173e e2e1 793e ecb6 183e
000000f0: cb15 f1bd 6a7d fd3d b146 a6ba 6f82 1abd
00000100: 6881 4ebe 68f1 b03e e0ba cfbd 08e4 c6be
00000110: 24cb 05be ac46 08be b85c c93d 9f12 43be
00000120: 5b52 2e3d 0b69 1039 2758 53be 1331 803d
00000130: 0487 573c 7b9c 50be c060 3c3e 9839 d6bd
00000140: 620b 1c3e f778 933c d5f9 7bbe e5cb 6cbd
00000150: 7137 8fbe a0f6 b73d ce1a cc3d 2dfd b83e
00000160: 56c7 093c 0a83 2d3e 1051 5abd 22e0 9e3e
00000170: b156 3dbd 6486 07be 6f56 10be 7d21 e93c
00000180: 9b39 f0be da17 8cbd 6615 143e b153 85be
00000190: f918 35bd 8579 453d 6566 4bbe c772 943e
000001a0: c97e cc3d 14c0 c4bd 1497 b2bd 3aae cabd
000001b0: 96f7 bc3b 3c14 ea3d 3714 9c3c f594 1d3e
000001c0: 0a23 f6bd 29f1 ebbd 89bf 803e efc1 a13c
000001d0: f610 283d 8b0d 8abc 5829 eebd abfc f1bd
000001e0: b127 c63e a915 083d c6b5 99be 1ed9 0dbd
000001f0: 0250 48be 6a88 d53e 7d2c a8bb e100 d9bd
00000200: cfd7 653e ec00 6e3e 3ccc 86bc 459f 8e3d
00000210: 3dff c1bd 23b5 9e3d 01e8 453d c76f 833b
00000220: 3a90 1e3a 3f00 073e 0e50 c83c 80a4 393d
00000230: 4992 80bc 9e8e 8f3e 504b 07be 87ee 56be
00000240: 39a8 0c3e 1976 9cbd b70c 21be ed22 103e
00000250: 5248 98be d3db 07be afba 11be 0b42 be3d
00000260: 55f5 543e 5aa1 3a3e b735 f73d 210e 1bbe
00000270: cf75 36bd 5194 b43e c900 9b3e a296 0a3e
00000280: 9157 133e 8392 543e 1e10 dcbd ca7b b9bd
00000290: 4b1d 083e ee33 b13c 7141 adbc e70b d53e
000002a0: 350b b6bd ff50 ba3d 50e2 94bd 7f13 cd3b
000002b0: 329a 053e f417 533c f757 6e3d 52d6 f2bd
000002c0: 9afc fb3b b079 cf3e 2cfb 883e b228 2bbd
000002d0: 921b 473e a28f 6fbe c716 38bd aad5 4abd
000002e0: f5ff 473e d12f aa3d 093c 863c f271 873c
000002f0: bfcd a13e 8612 f6bc 3b57 0cbe 8fc9 efbc
00000300: 78c1 b83d 04f2 803e 6f74 893d e177 b93c
00000310: 7824 1cbc c4b5 2bbe bfbd d8be 2fad 1dbe
00000320: a92a 4bbe d9e2 23bd 1c59 853e 2fcc cbbd
00000330: 222f 7cbe db8d 0fbe 363a 163e 32fd 6dbd
00000340: 62dd e3bc 0061 99bd 5a87 acbe 0815 643e
00000350: 81cf f5bc 4de3 c63d 46c6 38bc 8d57 1c3c
00000360: 0be3 3e3d 84ad fcb8 6d43 7a3e 4efa ebbd
00000370: 1c3e 4abe 76e2 49bd f48c 5f3d 35d9 cabd
00000380: e8aa 9a3e ec5d 1d3e 955a 3fbe a1c0 bcbb
00000390: 5ec0 02be a901 00be 9838 43be 1eea a03a
000003a0: 17c2 e4bd d785 a13e 0c5b 10be 7629 abbd
000003b0: f5f5 5ebd c3e3 3b3e 1a2d 413d bc26 15be
000003c0: 492f 943e 47e1 473d d900 0e3e 70e2 e63d
000003d0: 302d 25bc 5ece c0bc 2916 2c3e 85d1 573c
000003e0: 8b9a 7bbe 6239 0b39 92e0 04bd d947 8e3e
000003f0: f990 343e 9c59 07be 058c 68be a1a0 a0bd
0.0045310077 -0.11702151 0.05191702 0.06412418 -0.1336133 -0.20200129 0.27419022 0.06708448
0.02997453 -0.041169025 0.3228105 0.19450457 -0.08870212 -0.10638698 0.12270302 -0.07083253
-0.1576635 0.081710674 -0.47444028 -0.15882958 -0.0721232 0.03489379 0.067537 0.07182871
0.10321243 -0.10110306 0.04902704 0.05603934 0.26635766 -0.19337961 -0.21758227 -0.0017006894
0.11652825 0.08321635 -0.1686715 0.38081098 0.0024362574 -0.08127567 -0.20419352 0.13636835
0.15186843 0.12271115 0.2812193 0.19360667 -0.05727921 -0.031185132 -0.25644022 0.10706702
-0.12275885 0.020047577 -0.035656642 0.08097119 -0.13480039 -0.052331675 0.22659573 -0.16060774
-0.24499987 0.14747348 0.24402574 0.14913529 -0.11771735 0.123774365 -0.0012685863 -0.037722047
-0.20166552 0.34559178 -0.101430655 -0.3884585 -0.13065773 -0.13308209 0.09832138 -0.19050072
0.04255901 0.00013772042 -0.20639096 0.0625936 0.013154749 -0.20372193 0.18396282 -0.10460204
0.15238717 0.018002016 -0.24607022 -0.057811636 -0.27971986 0.08982587 0.0996605 0.36130658
0.008409342 0.16944519 -0.053299963 0.31030375 -0.046225253 -0.1323486 -0.14095472 0.028458351
-0.4691895 -0.06840487 0.14461288 -0.26040414 -0.04421327 0.048211593 -0.19863279 0.28993818
0.0998512 -0.096069485 -0.08720222 -0.09896512 0.005766819 0.11429641 0.019052608 0.15388854
-0.12018402 -0.11520607 0.2514613 0.019745795 0.0410318 -0.01685216 -0.116289794 -0.11815771
0.38702157 0.03322378 -0.30021495 -0.034630887 -0.1956177 0.41705638 -0.0051322565 -0.10595871
0.22445606 0.23242539 -0.016454808 0.06963972 -0.09472511 0.07749393 0.04831696 0.0040111276
0.0006048713 0.13183688 0.024452236 0.045322895 -0.015694754 0.28038496 -0.13212323 -0.20989428
0.13736047 -0.07639713 -0.15727507 0.14075823 -0.29742676 -0.1326745 -0.1423137 0.092899404
0.20796712 0.18225613 0.12070792 -0.15142109 -0.044545945 0.35269406 0.30274037 0.13534024
0.14388873 0.20759015 -0.107452616 -0.09056814 0.13292424 0.021631207 -0.021149369 0.41610643
-0.08888856 0.0909748 -0.07269728 0.0062584276 0.13047102 0.012884129 0.05818936 -0.118572846
0.0076900246 0.40522528 0.2675413 -0.041786857 0.19444111 -0.23394635 -0.044943597 -0.049520172
0.19531234 0.083099015 0.016386049 0.016533826 0.31602284 -0.03003813 -0.13705151 -0.029270915
0.09021276 0.25184643 0.06711661 0.02264017 -0.009530179 -0.16768557 -0.42332265 -0.15398096
-0.19840492 -0.04001126 0.26044548 -0.09951054 -0.24627355 -0.14018957 0.14670643 -0.058102794
-0.027815524 -0.074892044 -0.33697015 0.22273648 -0.030006172 0.09711323 -0.011277741 0.009542358
0.046603244 -0.00012048616 0.24439783 -0.11522351 -0.19750255 -0.049288236 0.054577783 -0.0990471
0.30208516 0.1536786 -0.18686898 -0.005760268 -0.12768695 -0.12500633 -0.19064558 0.0012276804
-0.11169832 0.31547424 -0.14097232 -0.083575174 -0.05443378 0.18348603 0.047162153 -0.14565557
0.28942326 0.048798826 0.13867511 0.11273658 -0.010081574 -0.023535904 0.16805328 0.013172512
-0.24570672 0.0001327745 -0.03244073 0.2778919 0.17633428 -0.13217777 -0.22709663 -0.078431375

network_body.linear_encoder.seq_layers.2.bias f4 [128]
00000000: 092f 863b c05e dcba e35f d1bb d5f8 d03b
00000010: 90bc f83c 72fb 003b 39f3 96bc f261 be3c
00000020: 0968 d33c 63ad b5ba 1785 9a3c 5d70 ecba
00000030: c6e3 fabb a01e b3bc 85f5 5b3c 6ef5 c23c
00000040: 87fa 56bb 4fd8 973c 36d0 343c e5d5 af3c
00000050: e0e7 90bc 8a75 b03c 00c8 a33c 98a6 633c
00000060: 6a6f d13c 6d05 d9ba fd6b c63c af40 9bbb
00000070: b9c1 d83c 93cb 43bc a551 a3bc 4e00 60bc
00000080: a379 333c 5747 09bc b563 66bb 9f5a be3c
00000090: 9a92 c53c c243 d83c 4ccc 87bc 2e70 f43c
000000a0: 61fd 013d e898 9bbc fa44 d8bb 3f49 b93c
000000b0: bbc8 b1bc 35d7 9d3c a0f9 a9bc fdde 1f3d
000000c0: 0875 28bc 7d29 c43c 1502 1f3d cd14 da3c
000000d0: 0bcc ca3c 13aa 19bb 0c3b c23c 8e43 683c
000000e0: 446b cb3c 95a9 403c e67d c73c 9195 d33c
000000f0: 1a19 a63c 2efc 39ba 7cf3 b33c ac9b b73c
00000100: be4f 91bd 4a3c b4ba 6e88 7d3c 5798 8c3c
00000110: 279b b13c 7758 14bc 7b01 293a f29f 39bc
00000120: 2998 9cbc 06a2 d8bc 7875 213c fd21 713c
00000130: ebda c838 19e7 b73c 8f8d 20bc 2f7c b53c
00000140: 59d1 b73b 2a82 36bc be76 643c a76a 6dbc
00000150: 052a 743c 5b1e 4ebc 9f0a ad3c 8d95 6ebb
00000160: e5ad bc3c fe27 013d ef43 083d 1c7e ba3b
00000170: c982 ad3c 213f 59bc 5403 3b3a 0fdf 953c
00000180: b0dd db3c ef54 ad3c 8f9d 203c f24d a53b
00000190: e648 8f3c 7750 0dbc e543 bbbb 14fc ea3c
000001a0: 4f49 cf3a 6e41 70bb bc12 e13b 3e0a 7d3b
000001b0: b2d1 943c 6c09 d83c 01e4 323c 690b 9c3c
000001c0: 0ec7 35bc b564 d8bc 26c6 2abc bb36 18bc
000001d0: a7ab 07bd 195a 073b b198 883c 4db1 9f3c
000001e0: ff67 103d bcac 8a3c 9053 c939 cb03 2a3c
000001f0: 1891 e73c 338f e43c a977 9aba e9d9 85bc
0.0040949625 -0.0016812906 -0.0063896044 0.0063773193 0.030363351 0.0019681123 -0.018426524 0.023240063
0.025806444 -0.0013860877 0.01886229 -0.0018038858 -0.0076565472 -0.02186519 0.013425236 0.02379867
-0.0032803135 0.018535761 0.0110359695 0.021464298 -0.017688692 0.021540422 0.019992828 0.0138946995
0.025565822 -0.0016557403 0.024221415 -0.0047379355 0.026459562 -0.011950391 -0.019936392 -0.013671948
0.010954293 -0.008378825 -0.0035154645 0.02323657 0.024117757 0.026399497 -0.016576909 0.029838648
0.03173578 -0.01899381 -0.0066000195 0.022617934 -0.021702161 0.019267658 -0.020748913 0.039031018
-0.010281809 0.023945564 0.038820345 0.026621247 0.024755498 -0.002344732 0.023709796 0.014176263
0.024831422 0.0117591815 0.024352025 0.025828155 0.020275641 -0.00070947676 0.021966688 0.022413097
-0.07095288 -0.0013750878 0.015474422 0.017162485 0.021680428 -0.009054295 0.0006447059 -0.011329638
-0.019115524 -0.026444446 0.009854667 0.014717576 9.57752e-05 0.022449063 -0.009799375 0.022153942
0.005609673 -0.011139432 0.013944326 -0.01449076 0.014902596 -0.0125804795 0.021123229 -0.0036405057
0.023032138 0.03153228 0.03326791 0.005691303 0.021180527 -0.01325968 0.000713398 0.01829484
0.026839107 0.021158664 0.00980319 0.005044692 0.017490815 -0.008625141 -0.005714881 0.028684653
0.0015814694 -0.0036660093 0.0068686884 0.003861084 0.018166397 0.02637168 0.010918618 0.01904841
-0.011094822 -0.026415208 -0.010423219 -0.0092903925 -0.033122685 0.0020653068 0.016674371 0.019493723
0.03525543 0.01692807 0.00038399966 0.010376881 0.028267428 0.027900314 -0.0011784929 -0.01633926

network_body.linear_encoder.seq_layers.2.weight f4 [128, 128]
00000000: a632 f8bc d0ec 88bd 4672 3abd 960c 0fbd
00000010: 452e 2a3e 60d1 edbd 4519 a83d 7e34 4fbe
00000020: 4996 fc3d a84a fbbd f3d4 df3c fbc6 ba3c
00000030: 7c30 c83d 6e50 06be 2544 1dbe 5cea 20be
00000040: 38c0 6b3d 577a 163e b59c 833c 459b 3ebd
00000050: 75e2 353d 9e3a 1c3d d1a8 54bd 0022 ccbc
00000060: 9a75 21be ef2d a93d ee39 c6bc b531 ed3d
00000070: 55a1 15bd 349d 643c dafb a9bc 71df c23d
00000080: 0ecc 44bd 89ec 4d3c 69e0 ea3d 8a9f 963c
00000090: 5f23 233e 6904 e239 6617 03be 2589 29be
000000a0: d046 4ebe 2656 f7bd b5f8 ab3e 07db 33be
000000b0: 8461 483c a763 043e 7347 dc3d 7bb0 b73d
000000c0: 5942 0bbd 6cfa 9ebe 7b93 8b3d 2d36 6bbe
000000d0: 7354 003e 2adc 36be f0da 643d aba8 5dbd
000000e0: 94d3 41be bef4 643c e8c1 213e 4d2f be3c
000000f0: 7b22 b5bd e6b8 223e 2e07 97bc 1bd9 24be
00000100: 0b59 a8bd fd3c 8b3e 95aa d83d dfdf fbbc
00000110: 709b 2dbe 5abc 773d 27e1 153d de8e ad3d
00000120: 69bd d93b 93d4 6a3d 08e5 d3bc f3aa 073d
00000130: 2f42 753d 7d48 e5bd 8dc9 703e 6fdf 9e3d
00000140: 1470 7bbc 9a53 4a3e 4a1a e7bd 73ba 0ebe
00000150: 9ca2 70bd 20a5 c53c 77bf 39bd 9ac8 a13a
00000160: cdff 233d 1584 5fbd b375 f23d b7b4 7fbd
00000170: a92f acbd dc5d adbc d4a8 b5bc 66bf e33d
00000180: 9215 e63d b9c0 19be f732 233e 09b9 26bd
00000190: 2837 933d 2e50 3dbd f24e 54bc e266 aa3d
000001a0: 8946 783d fd99 a4bb e057 80ba 02c5 6fbe
000001b0: e1e1 95bd a684 d93d 6bc6 72bd ef83 88be
000001c0: 1374 94bd 4fcf a83c 6e59 55bc 6825 68bd
000001d0: f0e6 ddbc c001 c7bd cb56 12be 5c02 77bd
000001e0: e7ea 7bbd 7c7e 4e3d fefb 10bd fb16 c23d
000001f0: c568 c6bd ad69 db3d 966c ddbd 6ee6 80bc
00000200: f03e 1bbe 99a3 683e aca6 2e3e e3dd e6bc
00000210: e269 f53c 707c 8ebd 9e99 c0bd f782 8abe
00000220: 9ca6 3b3e 3424 3a3e db4a b2bd d18c a2bd
00000230: 63a8 f73d 63f3 f1bc dde7 24be fb58 82bd
00000240: f5c4 13bd c3d0 2e3e eefb eb3d 905c 3a3d
00000250: 111f 823b e820 8d3e 8cb6 3ebd 05eb 71be
00000260: 4699 cbbd 96fb 093c b590 643e fb3d 3f3e
00000270: 942c 33be ffc9 e6bd f07e c7bd 3fbf 513e
00000280: 13dc 433d faff 563d 9698 35be 5902 8e3e
00000290: 4888 a03d 4455 9f3d 7bc7 a2be d09f 10be
000002a0: ef15 62bd 06d3 103e 1414 d03d 82ea 08bd
000002b0: 1160 d83d 48bf f03d 1a73 953b b921 0a3b
000002c0: 6ba8 2dbd 5a02 bebd b29b 523d 7685 16be
000002d0: e86b c33c 1165 50bd 18b2 763e 1797 403d
000002e0: 2115 323c b00f c33c 64fe b13d 5d30 4a3c
000002f0: bba6 86bb 39f4 86bc 33a1 973d 3de2 99be
00000300: 0916 333d 992c 123e 62c5 023e 784d c7bd
00000310: 4ba3 3b3d 01f4 973d 96c8 db3c 91f7 a8bd
00000320: e13c 71be 47b1 ae3d 1f47 a03c 9c30 573e
00000330: cd91 c43d a0a2 f3bd 39db 8b3c 13e0 d6bd
00000340: 7409 a33d 6103 bb3d 1027 443d 2c09 46be
00000350: fec4 413c c0db cbbd 2742 d2bc 97c4 c2bb
00000360: 79ec f8bc 9142 5abe f399 a23d bae7 233e
00000370: c4c6 f33d 010b 95bb 2389 c53d c378 7f3b
00000380: c808 013e dd4b 1d3c c929 44bb d125 1fbc
00000390: 0a2a 203e dde1 083d bee4 d83c 3433 033c
000003a0: 11de 58bd 744c d7bd 6e7f f23c 674c 0ebe
000003b0: 4389 fe3b e0f6 fbbc 6b51 53be b658 4bbe
000003c0: 70ff abbd 67eb 473c 846f 6e3d f4d4 0cbe
000003d0: 2cd7 383c e673 8ebe fd33 fbbb abc8 bc3d
000003e0: 9ffb 9a3d 652e 21bc 5fba 11be b6d6 b13d
000003f0: 3c98 013d abee 903e 509c 25be 68b5 d3bd
-0.030297589 -0.066857934 -0.045519136 -0.034924112 0.16619213 -0.11612201 0.08207945 -0.20234868
0.12333352 -0.12270099 0.027323222 0.02279996 0.09774873 -0.13116619 -0.15358026 -0.15714401
0.05755636 0.14695106 0.016065935 -0.046534795 0.04440542 0.03814184 -0.05191881 -0.024918556
-0.15767518 0.08260714 -0.024197545 0.115817465 -0.03653081 0.013953496 -0.020749975 0.09515274
-0.048046164 0.012568601 0.11468584 0.018386621 0.15931462 0.00043109365 -0.12801895 -0.16556223
-0.201442 -0.120769784 0.33588186 -0.17564021 0.012230281 0.1292864 0.10755815 0.08969208
-0.03399882 -0.31050432 0.06815239 -0.22969885 0.12532215 -0.17857423 0.055872858 -0.054115932
-0.18928367 0.013974367 0.15796626 0.023215914 -0.08844467 0.15890846 -0.01843604 -0.16098444
-0.082201086 0.27194968 0.10579411 -0.030746398 -0.16953826 0.06048236 0.036591675 0.084745154
0.006644894 0.057331633 -0.025866047 0.033122014 0.05987757 -0.11195467 0.23514386 0.0775746
-0.015346546 0.19758454 -0.11284311 -0.13938312 -0.058748826 0.02412659 -0.04534861 0.0012343109
0.040038873 -0.054569323 0.118388556 -0.062428202 -0.08407528 -0.02116292 -0.02217523 0.11120491
0.11234583 -0.15014924 0.1593741 -0.040703807 0.071882546 -0.046219043 -0.012958275 0.083204046
0.060614143 -0.0050232396 -0.0009791814 -0.23414996 -0.073184736 0.10621004 -0.059271257 -0.26663157
-0.07248702 0.020606665 -0.01302181 -0.0566763 -0.027087659 -0.09717131 -0.14290921 -0.060304984
-0.061503317 0.050413594 -0.03539657 0.094770394 -0.09687952 0.107135154 -0.10811727 -0.015734877
-0.15160728 0.22718658 0.17055768 -0.028181976 0.029957715 -0.06957328 -0.094043 -0.27053043
0.18325275 0.18177873 -0.08705684 -0.07937015 0.12092664 -0.029535001 -0.16104074 -0.06364628
-0.036076505 0.17071824 0.11522661 0.04549843 0.0039709886 0.27564168 -0.04656081 -0.23624809
-0.09941344 0.008421799 0.22320826 0.18675987 -0.17497474 -0.112689964 -0.09741008 0.20483111
0.0478173 0.052490212 -0.17733988 0.27736166 0.078384936 0.07779935 -0.31792817 -0.14123464
-0.0551967 0.14142999 0.101600796 -0.03342677 0.10565198 0.11755234 0.0045608403 0.002107723
-0.042396944 -0.09277792 0.051418014 -0.14699349 0.023855165 -0.050877634 0.24091375 0.04701909
0.010869295 0.023811191 0.08691099 0.012340632 -0.0041092313 -0.016473876 0.07403793 -0.3005542
0.043722186 0.14274825 0.12770608 -0.09731573 0.045810025 0.07419587 0.026829045 -0.082503445
-0.2355838 0.08529907 0.019565163 0.21014637 0.09598122 -0.11896253 0.017072307 -0.104919575
0.079607874 0.09131504 0.047888815 -0.19339436 0.011826752 -0.09954023 -0.02566631 -0.0059438455
-0.030386196 -0.21314456 0.0793952 0.16006365 0.11903146 -0.004548431 0.096452974 0.0038981892
0.12601006 0.009600607 -0.0029932132 -0.009713606 0.15641037 0.033418525 0.02647626 0.008007813
-0.052946154 -0.10512629 0.029601779 -0.13896333 0.0077678277 -0.030757368 -0.20636527 -0.1985806
-0.0839833 0.01220212 0.05821182 -0.1375311 0.01128177 -0.27822798 -0.0076661096 0.09217962
0.07567524 -0.0098377215 -0.14231251 0.08683531 0.031639323 0.2830709 -0.1617291 -0.10337335
