MLAgentsFB/Assets/MLAgents_FlappyBird/FlappyBird_3.onnx (onnx, 91137 bytes, 6 tensors)

distribution.branches.0.bias f4 [2]
00000000: b9de b63c b9de b6bc
0.022323 -0.022323

distribution.branches.0.weight f4 [2, 128]
00000000: 929f 553d 183f 6c3d fd07 81bd 4cee 2c3d
00000010: a3fc 603d 786e 233d 6151 4cbb 80cd 583d
00000020: b865 523d 789c ac3d 1424 6b3d 798e 59bc
00000030: d5bb e3bc d321 51bd 8434 f13d 738c ce3d
00000040: 7455 a7bd 301a 853d 18e6 573d a461 743d
00000050: 3b1c 9d3b 8003 063e ad2e 733d 72d0 4d3d
00000060: 85de 823d bfe4 26bb 43b9 413d 050e 81bd
00000070: b345 b03d 0d65 95bc f901 1dbc ea8b c2bc
00000080: d2c7 4dbd b9f1 9b3d 27d9 593b 34f8 46bd
00000090: a180 443d 8b15 273d 88fa 06bb b3c8 6d3d
000000a0: 2400 483d 4f02 40bd 55ad 303c 6508 4f3d
000000b0: c48c 413c 702a a43d f8c1 07bd c27e 763d
000000c0: ba76 b5bc e0e2 673d d0f1 533d dd99 ac3d
000000d0: dfc0 a43d 14c7 94bc fd7b 733d 2ec9 983d
000000e0: a5af 773d 967e 7bbd 0f85 a83d 8893 893d
000000f0: bc16 6f3d 5590 a13c 9718 3dbd d557 aa3c
00000100: 9d8d ebbc c92e 11bc e157 3d3d 5ec0 d43c
00000110: a633 2d3d 6381 d8b9 1b95 05bd 2b1c a23a
00000120: 8aad 9dbc e3db bebb 2c92 193d 174b d1bc
00000130: 5475 ccbc a06e 7abd 34f3 ae3c 5463 933d
00000140: 555f 543d 30e7 29bb 9fb1 553d 2ff2 9dbd
00000150: c3b8 b93b aed1 093b d52c 1f3d b3cf 4abc
00000160: e61f 843d 4927 c63d 5d5a 6b3d 9cd2 6bbd
00000170: 03f2 8bbd ccad 31bd cc36 d6bc a799 5c3d
00000180: 7bb3 3d3d 0b65 b33d 2633 09bd 06e1 fa3c
00000190: 3899 a03d 4b29 aebc aa49 4abc d005 0fbd
000001a0: 9b20 50bd 0e89 943d c914 57bb cfb9 89bb
000001b0: 84bd 953d f9d1 65bc d929 4d3d 880d ad3d
000001c0: 8916 89bc 1f28 04bc 9012 42bb 2567 2ebd
000001d0: 1ea9 98bc 23c7 78bc d71b b43d f8f8 92ba
000001e0: de30 3f3d ed8c 64bd 3df2 acbc c2dc 573d
000001f0: e534 883d 5b03 bc3d c7e6 0fbd e2cf 883a
00000200: e439 4fbd dab9 75bd 7c27 0c3d 4910 2fbd
00000210: 8530 15bd 61cd 26bd 7a86 c73c 940b 5cbd
00000220: 9475 8ebd 3ab5 bdbd dcca 82bd 0d73 f43b
00000230: 86d5 fc3c e2c2 403d 3917 e7bd fa87 9bbd
00000240: f1a3 b43d 9814 30bd 6b99 91bd 4c13 78bd
00000250: 345f 18bd e20e 06be 0d05 68bd 89c4 30bd
00000260: 20e2 4dbd f0bd 42bc c90e 28bd 81a7 3a3d
00000270: 5b47 aabd 7cfb 043d eab7 493c 3138 dd3c
00000280: 3c4b d13c 0cd7 9cbd 93da 03bc ed84 3f3d
00000290: 866c 6bbd 4908 38bd 3946 2c3c 1125 73bd
000002a0: d2d3 33bd b1b3 093d 9224 85bc 014f 13bd
000002b0: 9131 a3bc 49c6 b4bd f35b 443d 741d 7abd
000002c0: 3d01 2e3d 29b1 8abd 54c8 44bd da53 cabd
000002d0: 2c75 b1bd 9a0d 1b3c 3146 57bd 94b1 1ebd
000002e0: 6cab 13bd e8cb 973d 2ee3 b4bd 2270 93bd
000002f0: 1e41 70bd f6d3 d8bc 951e 593d 6636 3fbd
00000300: acdb 913c 164b de39 cda1 98bc 6951 88bd
00000310: d3a4 52bd 9940 503b ece0 c83c de58 2a3a
00000320: fb5c 5a3c faf0 833b 6a35 ffbc f132 0b3d
00000330: 7b46 e53c 8e87 503d 5a9d 14bc ad68 85bd
00000340: 6636 3ebd 1ebb 3c3c e740 82bd 37f9 af3d
00000350: c644 3bbc 09d0 e33c a0c8 1abd a0c4 0b3c
00000360: 88d2 40bd a104 afbd 2368 6fbd bdc1 6c3d
00000370: 69d9 7a3d 4c6c 793d 057f 0c3d 6e1a 44bd
00000380: 953e 83bd a2cc acbd ed2e e93c 05e9 e2bc
00000390: d7b5 b8bd 117f 553c 97ad 8d3c b995 1a3d
000003a0: a606 273d 514c 67bd d0cb c9bb 70c7 b93b
000003b0: 399c 56bd 595c 94b9 9d0c e8bc dfd0 8fbd
000003c0: cf5d 533c 8fc6 4a3c 8296 9c3c 702a 243d
000003d0: 7cc1 153b 3130 a03c 8eb8 acbd f9ca 2cba
000003e0: 7f85 7cbd fee4 643d ce83 093d 4bc9 40bd
000003f0: a41c 65bd ce42 b7bd 3234 953c fce2 ccbc
0.05215413 0.05767736 -0.06300352 0.042219445 0.054928433 0.039900273 -0.0031176435 0.052930355
0.051366538 0.084282815 0.057407454 -0.013278597 -0.027799526 -0.051057648 0.11777595 0.10085382
-0.08170596 0.064991355 0.05270967 0.05966343 0.004794625 0.13087273 0.059370685 0.050247617
0.063900985 -0.0025465933 0.04729582 -0.06301502 0.08607044 -0.018236661 -0.00958299 -0.023748357
-0.05023939 0.07614464 0.0033241005 -0.04857655 0.047974233 0.04079203 -0.0020596106 0.05805273
0.04882826 -0.0468772 0.010783513 0.050545115 0.011813346 0.08015907 -0.033143967 0.06017948
-0.02215134 0.05661285 0.051744282 0.084277846 0.080446 -0.018161334 0.059444416 0.07460247
0.060470242 -0.06140002 0.08228504 0.067175925 0.05837129 0.019722143 -0.04616603 0.020793835
-0.02875405 -0.008861252 0.046226386 0.025970634 0.042285584 -0.0004129513 -0.0326129 0.0012368014
-0.019247789 -0.0058245524 0.037492916 -0.025548501 -0.02495829 -0.061140656 0.021356203 0.0719668
0.05184873 -0.0025925152 0.052171346 -0.077122085 0.0056677773 0.002102952 0.038861115 -0.012378621
0.06451397 0.09675462 0.057459224 -0.0575739 -0.068332694 -0.043378636 -0.026149176 0.05385747
0.046313744 0.08759507 -0.033496045 0.030624878 0.07841724 -0.021259924 -0.012346664 -0.034917653
-0.050812345 0.072527036 -0.0032818785 -0.0042030583 0.07311538 -0.014027112 0.050088737 0.084498465
-0.016734378 -0.008066206 -0.0029613115 -0.042578835 -0.018635329 -0.015184197 0.087943725 -0.0011213114
0.046677463 -0.05579846 -0.021111602 0.052700765 0.06650714 0.091803275 -0.035132196 0.001043793
-0.05059232 -0.059991695 0.034217343 -0.04274014 -0.036423225 -0.04072321 0.024356116 -0.05372198
-0.0695602 -0.09263082 -0.063863486 0.007460004 0.030863535 0.047060855 -0.11283726 -0.07594295
0.08820332 -0.04298839 -0.0710934 -0.060565278 -0.037200168 -0.13091615 -0.05664544 -0.04315618
-0.050264478 -0.011886105 -0.041029725 0.0455699 -0.08314391 0.032466397 0.012311915 0.027004333
0.02554857 -0.076582044 -0.008047718 0.046757627 -0.057476543 -0.044929776 0.010514789 -0.05936152
-0.04390318 0.033618633 -0.01625279 -0.035964016 -0.019921096 -0.088268824 0.047939252 -0.061063245
0.04248165 -0.06772072 -0.04804261 -0.09879275 -0.08664927 0.009463692 -0.052557174 -0.03874357
-0.036052153 0.07411939 -0.088323936 -0.07199122 -0.05865585 -0.026468258 0.05300768 -0.046682738
0.017804943 0.00042399083 -0.01863184 -0.06656153 -0.05142672 0.0031776784 0.024521314 0.00064982276
0.013327832 0.0040265294 -0.0311534 0.03398413 0.02798771 0.050910525 -0.009070719 -0.06514106
-0.046438597 0.011519222 -0.063600354 0.08592456 -0.011429971 0.02780916 -0.037788987 0.008530766
-0.04707578 -0.08545805 -0.058448922 0.05780195 0.061242495 0.060894296 0.034300823 -0.047876768
-0.06408421 -0.08437468 0.028464759 -0.027699003 -0.09019058 0.013030783 0.017294688 0.037740443
0.040777825 -0.056469265 -0.0061583295 0.0056695268 -0.05239508 -0.00028297564 -0.028326327 -0.07022261
0.012900784 0.012376442 0.019114736 0.040079534 0.0022850921 0.01955423 -0.084336385 -0.00065915246
-0.06165075 0.055882446 0.033572964 -0.047066968 -0.055935517 -0.08948289 0.018213365 -0.025010578

network_body.linear_encoder.seq_layers.0.bias f4 [128]
00000000: c189 173d 9795 e6bc 5469 b2bb 477e 01bb
00000010: 80da 3abc 1279 473d 56a2 29b9 e0c1 a53c
00000020: 7942 323c 283d 1a3c 4bdc 1a3d 3ad3 c83c
00000030: e88c f43c 1ec8 47bb 3035 623d 8ab7 1f3d
00000040: 93bd 503c e39b 183d 293a 1b3c 6be1 c6bc
00000050: 300c 57bc 85f7 67bc 4e83 183d d1cc 013d
00000060: f3eb bf3c f89f babc 6b54 b73c 44a6 1d3d
00000070: c8cf c43d 4c04 ae3d 70c6 103b daf2 6f3c
00000080: 6088 30bb 7e9d 9539 bf40 2e3b ff66 cb3a
00000090: 1636 69bc bdce fc39 3c4a 283d 398e 9a3d
000000a0: 83d8 023c cec5 0a3c 6684 143d 5f17 9c3c
000000b0: 5ec7 4c3c cd6b d53c f298 8c3b 2c67 a03c
000000c0: 3b3f 303c d8f4 4f3d 2775 743b 9e7b 053d
000000d0: aba4 053b 4fff a23c 9b4e 1b3c c02d 023d
000000e0: d9fd ac3c 2395 aebb 7938 e83c 904c 3bb6
000000f0: 2d1b f6bb 0bfe 3c3d c96f 113b 05d3 52bc
00000100: 2b24 8d3c 1b3f e13c e7b4 d03c 25fa 83bc
00000110: 7546 623c ee56 0e3d e46c 2a3b 03f4 de3b
00000120: a0df 633d 734e ee3c 921f cc3b 5b39 a13c
00000130: 9b71 363c 5382 8ebc 89e8 a03c c832 ce3b
00000140: cee8 d6ba 8169 7d3c dd0c 163c 4252 a03d
00000150: ab82 8ebc 730e 533c 6f4a 2d3d ec15 723c
00000160: 56bb 84bc 38fe 263d 2a8b 7abc 0e66 5d3c
00000170: a650 a33a f2a0 76bc d7a3 193d 1d60 a3ba
00000180: dfc1 be3c 9592 dc3c e41b 273c d60a 76bc
00000190: d5be 013d 45f9 9a3c 5053 9a3c de13 b43b
000001a0: f263 44bc 1a39 113d 151c 123c 7a7b a03d
000001b0: 4e49 043a a7dd 883b 8853 203c 67d5 f03c
000001c0: 5456 1a3d 42f5 9a3c af08 b03c 5653 29bc
000001d0: 6a09 48ba c13d bd3b 344e 7abb 5e5f ebbc
000001e0: e4ec 4b3c 9d93 723d 394b 373d af39 29bc
000001f0: f36c 053d 3c69 073b 5b17 ff3c 6c39 ad3c
0.036996607 -0.028147502 -0.005444685 -0.0019759105 -0.0114046335 0.048699446 -0.00016177571 0.020234048
0.010880106 0.009413995 0.037807744 0.024514783 0.029852346 -0.003048427 0.055226505 0.038993396
0.0127405105 0.03725804 0.009474316 -0.02427741 -0.013125464 -0.014158134 0.037234597 0.03168947
0.023427939 -0.022781357 0.02237912 0.03848864 0.09609944 0.08496913 0.0022090934 0.014645303
-0.0026936755 0.00028536835 0.0026588885 0.0015518366 -0.0142340865 0.00048219218 0.04108642 0.07546658
0.007986191 0.008470012 0.036259077 0.019054113 0.012498705 0.02605238 0.0042906934 0.019580446
0.010757263 0.05077061 0.0037301274 0.032588594 0.002039234 0.019897131 0.00947919 0.03178191
0.021117138 -0.005327837 0.02834724 -2.7909737e-06 -0.007510564 0.04614071 0.0022191873 -0.012867694
0.01722916 0.027495911 0.025476886 -0.01611049 0.013810744 0.03475087 0.0026004845 0.006803991
0.055633187 0.029090142 0.0062293494 0.01968067 0.011135484 -0.017396128 0.019642131 0.0062926747
-0.0016396286 0.015467049 0.00915834 0.078281894 -0.017396292 0.012881863 0.042307314 0.014775734
-0.01620261 0.040769786 -0.015291968 0.013513101 0.0012459948 -0.015053021 0.037509765 -0.0012464557
0.023285804 0.026925365 0.010199521 -0.015017232 0.031676132 0.01891769 0.018838555 0.0054955324
-0.011986719 0.035454847 0.008917828 0.07836051 0.00050463236 0.0041768136 0.00978554 0.029398633
0.037679985 0.018915776 0.021488516 -0.01033481 -0.00076307973 0.005775184 -0.0038193585 -0.028731998
0.012446616 0.059222806 0.044749472 -0.010328694 0.032574605 0.002066209 0.031139066 0.021145545

network_body.linear_encoder.seq_layers.0.weight f4 [128, 42]
00000000: 6449 cdbb 804e 3fbe 351d 343d d971 273d
00000010: 2ad2 00be 7a52 6bbe 263f 6c3e 57a3 3c3d
00000020: 5d93 f53c 3088 ccbd 0cba 963e 8d4e 2d3e
00000030: 933d debd 94c6 90bd 7752 303d c40d cabd
00000040: 41f9 36be 3300 263d fd6b e2be d32b 2abe
00000050: 7557 9bbd 7f41 96ba a935 0f3e 53f5 103d
00000060: 2a5a ae3d a04e f1bd c4e4 0a3d dbd5 613d
00000070: 0aa0 303e 3552 5abe a3a2 3dbe 0b0a 62bd
00000080: 2932 ec3d ff3a 663d 6602 42be f7b0 b53e
00000090: 0a5a c1bc 5a84 9fbd ac5f 76be e657 ce3d
000000a0: 22ef 063e 9ed1 833d 9267 883e 02c2 893e
000000b0: ed8b 4bbd 9e4b 9a3b 694a 8abe 018e 063e
000000c0: 827f ffbd 7fa6 6a3d 2944 32bd ecde b83d
000000d0: b65d ccbd e3a9 67bc f2c8 5e3e a398 2abe
000000e0: ab93 2ebe 8561 3f3e 4abb 7b3e ca7d 013e
000000f0: 9e7c f1bd 7935 253e d182 5fbc 1c4d fdbb
00000100: b611 46be d86b ae3e ea43 bfbd c3de d2be
00000110: 1596 3abe 5236 dbbd fa47 3e3d ee59 32be
00000120: 60f7 dd3d 94c9 a6bb d7ec 2fbe 8c74 353d
00000130: d38c d83c 9f7f 4bbe 02c6 333e d01c c6bd
00000140: e893 013e 9ec4 1c3c d4e6 6bbe 3635 83bc
00000150: fa0a 8bbe d5bc 00bc c557 c73d 68d0 a93e
00000160: 1f04 02bc 4bb3 0e3e 5069 63bd cc48 8f3e
00000170: 000b a7bd c3f3 ecbd 7df2 26be 5333 f7bb
00000180: 923f f5be 4d74 9fbd 23f8 b83d ab21 96be
00000190: 16cc 97bd 4d30 d43c 08fe 37be 7b7d 803e
000001a0: 9067 563d 0073 fbbd ff18 8abd ef8b e3bd
000001b0: 86a5 1bbd 32e8 ba3d 9397 a13d d18a 043e
000001c0: bc42 d0bd 1acc 22be c45d 423e 4891 833b
000001d0: ec37 f1bc 1f83 0cbd 3227 02be dca6 12be
000001e0: a028 a73e 6a07 d2bc 544f 72be fda2 97bd
000001f0: 2816 5fbe f18f f63e 8888 39bb 1eae 87bd
00000200: cba9 1c3e e435 303e 3832 0a3c 85bc a83d
00000210: 5b12 3fbe 6112 b03c beaf a43d 9bc4 7dbd
00000220: e909 8abd 19aa 983d 262c 923c 8c9b 823d
00000230: 2171 f9bd 7a07 6d3e 7aed f7bd c50c 90be
00000240: 3b09 143e 7357 dfbd 5730 13be 2121 e93d
00000250: f9ea 80be 0707 2fbe 49d5 04be 7590 973d
00000260: 7858 f73d 0c61 303e 54b9 a03d 4806 36be
00000270: 9b4a babd 313a 993e 3e11 a83e 331a fe3d
00000280: 0fa9 b33d 47b2 283e bf79 dcbd 9934 bfbd
00000290: f584 ae3d c001 5f3b eb1f 86bd 1cc1 903e
000002a0: 195c c9bd 97a3 1f3e ca89 87bd a742 233d
000002b0: d1ab fd3d 668a 333d a76a 563d ff7e adbd
000002c0: 9352 973b a688 d03e 13ce 993e c8c7 9abb
000002d0: 0c1f 3e3e 10e2 6dbe f4fe d93c e44a 7fbc
000002e0: e0d0 533e 3524 673d ce91 ad3c 106e 563d
000002f0: 2b1d a03e 7c06 96ba 7c0e 1dbe 689b 05bd
00000300: 69b2 de3d 0e2e 6d3e 14b9 cf3c a71f 5c3d
00000310: 081e 36bd c01c 12be 2d66 b7be 82ea 2abe
00000320: ee03 1dbe c2ce 78bd 6da3 923e 04c7 b4bd
00000330: 289a 71be 2704 dabd 0630 093e 756e 55bd
00000340: b828 96bb 82f1 fcbc 3c00 b0be 6068 2a3e
00000350: ad4a 40bd f382 973d ca0e a4bc c79d ccbc
00000360: f2df 0c3d 617c b9bc bfea 6f3e 7e11 14be
00000370: 975f 64be 110e 9abd f4d9 133d ee1a a3bd
00000380: 9cb9 7c3e ff96 fa3d 62aa 5ebe 8e76 a8bc
00000390: 5f4d c0bd 9c1f 16be b056 5dbe 4747 bdbc
000003a0: 8b87 bfbd cfbf 9d3e 793b 35be 7b0d c2bd
000003b0: f791 53bc 1769 2c3e 2892 633d e7d3 38be
000003c0: b0a8 753e 1f4b 073d ba5e 943d 0de3 d13d
000003d0: 0c07 68bc 7242 60bd 9d4c 053e adfa e9bc
000003e0: 72be 52be d4ee cdbc 05da 2dbd 3864 923e
000003f0: dd44 2e3e f042 68bd 2297 64be 3175 4cbd
-0.0062648524 -0.18682289 0.043973166 0.040880058 -0.12580171 -0.22980681 0.23070964 0.04605421
0.029977495 -0.09986913 0.29438818 0.16924496 -0.10851588 -0.07069126 0.043047395 -0.09865907
-0.1786852 0.040527534 -0.44223014 -0.1661828 -0.075850405 -0.0011463611 0.13985313 0.03539021
0.08513291 -0.11782575 0.033909574 0.05513559 0.1724855 -0.21320422 -0.18519072 -0.05518536
0.11533005 0.056208607 -0.18946227 0.35486576 -0.023602504 -0.07788916 -0.24059933 0.10075359
0.1317716 0.06436466 0.26641518 0.2690583 -0.04969399 0.0047087213 -0.27009895 0.13140108
-0.12475492 0.05728769 -0.043522034 0.09026894 -0.099788114 -0.014139625 0.21756342 -0.16659789
-0.17048518 0.18689544 0.24583164 0.12645641 -0.11791347 0.1613368 -0.013642029 -0.0077301394
-0.19342694 0.34066653 -0.093391255 -0.4118558 -0.18221314 -0.1070372 0.04645536 -0.17417118
0.10838199 -0.005089948 -0.17180191 0.0443006 0.026434338 -0.19872902 0.17556003 -0.09673464
0.12654078 0.009568362 -0.23037273 -0.016016584 -0.27156812 -0.007857521 0.097335376 0.33166814
-0.007935553 0.13935582 -0.055520356 0.27985227 -0.08156395 -0.11569931 -0.1630344 -0.00754396
-0.47900063 -0.077858545 0.09031703 -0.29322562 -0.07411973 0.025901938 -0.17967999 0.25095734
0.05234486 -0.12277794 -0.06743049 -0.111106746 -0.037999652 0.09126319 0.078902386 0.1294358
-0.101689786 -0.15898171 0.18981081 0.0040151216 -0.029445611 -0.034304734 -0.12710264 -0.14321464
0.32648182 -0.0256383 -0.23663074 -0.074041344 -0.21785796 0.48156694 -0.0028310139 -0.06625007
0.15299146 0.17208058 0.008434825 0.08239082 -0.18659346 0.021493139 0.08041333 -0.061955076
-0.067401715 0.074543186 0.017843317 0.063773245 -0.12179781 0.23147383 -0.12105842 -0.28134742
0.14456646 -0.109053515 -0.14373909 0.11383272 -0.2517927 -0.17092524 -0.12971987 0.074006
0.12077421 0.1722452 0.078478485 -0.17775834 -0.09096261 0.2992721 0.32825655 0.12407341
0.0877248 0.16474257 -0.10765409 -0.09336204 0.08521453 0.0034028143 -0.065490566 0.2827233
-0.09832019 0.15589748 -0.06618078 0.039858487 0.12386287 0.04383316 0.052347805 -0.08471488
0.004617998 0.40729254 0.30040035 -0.004723523 0.18566531 -0.23230767 0.026610829 -0.01558182
0.20685148 0.056431014 0.02118769 0.052351058 0.31272253 -0.0011446024 -0.15337557 -0.03261891
0.10873873 0.231621 0.025356807 0.053741124 -0.044462234 -0.1426878 -0.3582014 -0.1669102
-0.1533353 -0.060744055 0.2864031 -0.08827022 -0.23593962 -0.10645323 0.13397226 -0.052107293
-0.004582491 -0.030876879 -0.3437518 0.16641378 -0.046946216 0.073980235 -0.020026583 -0.024977578
0.03439326 -0.022642316 0.23429392 -0.14459798 -0.2230209 -0.07522214 0.03609653 -0.07964121
0.2468018 0.122358315 -0.21744683 -0.020564344 -0.09389757 -0.14660496 -0.216151 -0.023105277
-0.09352025 0.308104 -0.17698468 -0.094752274 -0.012913219 0.16836964 0.055559307 -0.18049584
0.2399013 0.033030625 0.0724463 0.102483846 -0.014161836 -0.054750867 0.13017507 -0.028561914
-0.20580462 -0.025138296 -0.042444248 0.28592086 0.17018457 -0.05670446 -0.22323278 -0.04991645

network_body.linear_encoder.seq_layers.2.bias f4 [128]
00000000: 08c8 fa3b 12b5 33bb 904c 5e3a 8396 473b
00000010: 951b 9d3c ee64 993b ac96 adbc 9b15 853c
00000020: 5a00 8e3c 5019 f1bb 1aba 923c 0699 603c
00000030: cd5b aabb 086a 98bc 861c f33b af7b 9c3c
00000040: ad8d 9739 b3dd 753c 42bb 723c 11a0 4a3c
00000050: 8810 85bc 6a1d 303c 1b2f 873c c4b3 453c
00000060: a8e8 893c 7ff8 353c 07db 7c3c 4267 9c38
00000070: 1b0b ab3c ffcd 4ebb 5c22 90bc 6e94 90bc
00000080: a3ab 793b 6777 77bc 0a08 24bc 3ba6 273d
00000090: 32ab 703c 6d90 713c 993e f4bc ede2 9b3c
000000a0: 54e7 913c c1d0 3bbc 965c 08bc ed36 873c
000000b0: 41e7 8ebc 3f23 ac3c db51 8abc 39e1 b03c
000000c0: d6ba a7bb ed9d 743c 0d63 a43c 4473 963c
000000d0: 0120 a93c 6bb6 0a3c f35e 893c 0077 5e3c
000000e0: 4ab8 9a3c be28 9c3c e30c b43c 8ec5 9b3c
000000f0: b44f 9e3c 85b6 80bb 8166 c53c 68b5 833c
00000100: f106 2dbd efbe 5dbb 6ada 583c 7cd4 373c
00000110: f97c 893c c6a0 dbba 268f 5d3c 2298 9d39
00000120: 0b10 95bc df16 babc 90d3 403c 048a ce3c
00000130: 07a1 813c 9617 f33c 1637 aabb 8331 8a3c
00000140: 03c5 113c 12ab f8bb 6f2e 763c c402 0abc
00000150: 4fed a03c c8e8 26bb b304 833c 2d7b 02bb
00000160: 54cd 853c 3d43 ac3c 8edc c03c 1618 ba3b
00000170: 57ee 563c adf7 f8ba 577f 453c 6e73 853c
00000180: bc7b 583c bb05 483c aee4 2c3c dfee 163c
00000190: 9354 2f3c 5612 8abc 9f5a 0dbc fe0e fc3c
000001a0: bd79 303b c04d a4bb ace6 7d3c 9580 853c
000001b0: dbad 8e3c 6ce9 4b3c 099f 8d3c 2334 763c
000001c0: 873c 5abc 8991 8dbc 180d 9abc 17eb 18bc
000001d0: 0db6 99bc e1f4 953c b879 8f3c 3fb7 9f3b
000001e0: 5ad9 a43c 6142 733c 05ad 5e3a 344d 513c
000001f0: 4e48 a13c 51e3 893c bf84 943c 6a1b e7bc
0.00765324 -0.0027421159 0.00084800366 0.0030454702 0.019178191 0.004681221 -0.02119001 0.016245654
0.017334152 -0.007357754 0.017911006 0.013708359 -0.005198932 -0.018605247 0.0074191717 0.019101946
0.0002890652 0.0150064705 0.014815154 0.012367264 -0.016243234 0.0107492 0.016501954 0.012066785
0.016834572 0.011106609 0.01543308 7.457893e-05 0.020879319 -0.0031555889 -0.017594509 -0.017648902
0.0038096688 -0.015104151 -0.010011682 0.040930014 0.014689254 0.014743906 -0.029815005 0.019029105
0.017810501 -0.011463345 -0.008322855 0.016505683 -0.017444255 0.0210129 -0.016884735 0.02159177
-0.005118708 0.014930231 0.020066762 0.01836551 0.020645143 0.008466343 0.016768908 0.0135781765
0.018886704 0.019062396 0.021978801 0.0190151 0.019325115 -0.003928008 0.02409673 0.016077712
-0.042242948 -0.003383573 0.013235668 0.011220094 0.016783224 -0.0016756288 0.013522899 0.0003005872
-0.018196126 -0.022715984 0.01176919 0.025212295 0.015823854 0.029674333 -0.005194555 0.016869312
0.008897069 -0.0075887525 0.015025719 -0.008423511 0.019644408 -0.0025468338 0.015993452 -0.0019909844
0.01633326 0.021028155 0.023542669 0.005679141 0.013118348 -0.0018994712 0.012054286 0.016290393
0.013213094 0.0122083975 0.010552568 0.009212225 0.010701316 -0.016854446 -0.008627563 0.030768868
0.002692803 -0.0050141513 0.015496891 0.016296664 0.017416885 0.012445789 0.017287748 0.015027079
-0.013320095 -0.01728131 -0.018805072 -0.009333394 -0.018763566 0.018305244 0.017514095 0.0048741396
0.020123173 0.014847369 0.000849441 0.012774754 0.019687798 0.016832026 0.018129705 -0.028211314

network_body.linear_encoder.seq_layers.2.weight f4 [128, 128]
00000000: 9333 c9bc 0cd6 a5bd 2fae f3bc 0331 2cbd
00000010: 4e1d 1f3e c330 d5bd 1b69 b43d 07ae 43be
00000020: 4b3f d73d 018a d7bd fc0d 533d 9ec5 633d
00000030: cb80 aa3d 6b2d 09be 4f60 2abe 9ade f9bd
00000040: 6d52 8f3d fd59 0f3e c521 f8bc 9ced 18bd
00000050: 33f9 213d 371f ec3c a684 5bbd deec cbbc
00000060: e37e 0cbe 5a50 9f3d 3e02 15bd e912 013e
00000070: a72d cdbc fae2 dd3c 1789 14bd 73d5 bb3d
00000080: 84cf 1fbd 0308 1c3d 37a0 083e d094 983c
00000090: 36af 103e 1a8f a43c 204e 00be dfff 2fbe
000000a0: 2a38 2dbe e099 15be 6d30 a53e 753c 35be
000000b0: b33f 53bb d15a ba3d 3823 033e b843 c83d
000000c0: aa99 33bd 45de 9dbe 8987 483d f777 5bbe
000000d0: 28e0 e73d 34e7 11be 0a08 233d 09da 86bd
000000e0: 5ae7 2ebe ef06 653c 8fac 1d3e 6fce 3b3d
000000f0: 1213 a6bd 965c 323e cee6 e0bc 8af3 e9bd
00000100: 2a44 cfbd ad4c 933e 3817 ed3d 337d 63bc
00000110: 32f7 3cbe 8e49 993d f2a9 0b3d b673 c13d
00000120: e09d b73c f097 653d b326 fe3b 1e1c 3b3d
00000130: 6e72 913d ba03 06be 8705 5e3e 6bd4 853d
00000140: e97c 8b3b 84bd 4a3e 9666 e1bd 5d03 03be
00000150: 32ea 79bd 1bd8 5f3d 0b18 a7bc 146b 843c
00000160: dd89 723c 9f2b 82bd c033 023e 669d 82bd
00000170: ca28 bcbd ec35 6bbd e3e4 12bd cf72 fe3d
00000180: b434 b33d 1cb7 13be 77a9 2b3e 07cc 36bd
00000190: ad91 6f3d 7f4d 2abc 7ad1 beba af4e c83d
000001a0: 717d 783d 62f4 193d 396f 2b3d dae9 53be
000001b0: 3d05 edbd 4b4c ba3d bcf2 7bbd 9879 84be
000001c0: a41f 76bd e56b 453d d329 04bb 8ec6 9ebd
000001d0: 70b4 24bd e812 88bd f0eb 0bbe 65cd 90bd
000001e0: b01b c9bc b934 e73c 7403 d63b b55c 9f3d
000001f0: 9e23 e3bd c121 a33d ac40 d2bd dd92 383c
00000200: dcb5 05be 6e9f 5a3e 6ca7 423e 0687 e3bc
00000210: 554c dd3c f4d3 6abd 0981 83bd 13e8 86be
00000220: 6feb 403e 9f0f 523e 860b 8dbd fcd2 76bd
00000230: 8cfb c03d 5949 eebc 96dd 2cbe b23d a1bc
00000240: 795e 01bd bd2c 093e 4026 a23d d227 683d
00000250: e493 103c d8c0 8d3e a1ee 67bd 21cf 70be
00000260: 7e51 a7bd 2a53 4f3c 8f1a 5c3e 70b5 443e
00000270: be61 25be dd68 c9bd 0e95 d6bd 22bc 4b3e
00000280: 367a 4a3d 2dfe b13d 60dd 1fbe 759c 8f3e
00000290: 13cd 893d 1f1c 083e 4e1f a1be 9047 14be
000002a0: d4f0 d039 0426 ed3d c985 b73d e427 0abc
000002b0: 4fcd c23d 7e1a 8c3d b44a 113d 6cc1 a23b
000002c0: e234 8ebd 92c2 b0bd f5c4 f83c eaa8 05be
000002d0: bf55 8c3c 18e8 99bc bb57 653e 96c9 fa3c
000002e0: 5e7a cc3c 6bfd f73c beff 703d fb3c a23c
000002f0: 0cc2 243c 10c8 333b f8fe 5e3d d40c 75be
00000300: 608c 2e3d ec74 283e 8052 023e 72f8 80bd
00000310: 86b5 8f3c b942 b33d 633a db3c 2da4 a5bd
00000320: ca77 74be 1496 9f3d 69cf 023d 1752 4c3e
00000330: 92e4 d23d 7bf8 e4bd 946f 17bb 7d16 fbbd
00000340: 9b26 bb3d af09 b63d 6be4 7b3d c8c4 3dbe
00000350: 88bf 123c 01ff 9bbd 3713 083c 3f48 0bb9
00000360: 77c5 95bd 5973 66be a076 ab3d bc9a 243e
00000370: 967a ec3d a573 a7bc 48f7 a43d 5d14 c23b
00000380: a63b d53d 3295 2cbb f67a 31bb b54c 3cbc
00000390: e183 0d3e 81c0 523d 18fe 1c3d b45b c13c
000003a0: 9c30 18bd 6eb8 30bd 8cf3 483d 6239 edbd
000003b0: 9dc7 e7bc 9a69 3abd 671c 4dbe baed 4fbe
000003c0: ad0e a4bd 8669 ed3c c4cf 613d 9982 1fbe
000003d0: 2809 e33a 781e 7fbe af54 c53b aa2a cf3d
000003e0: da41 f33d 7ef0 a4bc 231d febd 9375 8e3d
000003f0: 1b48 1c3d fbe8 753e a2ea 0cbe 5cef b2bd
-0.024560725 -0.08097467 -0.029746143 -0.04203893 0.15538523 -0.10409691 0.0880911 -0.19109355
0.10510119 -0.10524369 0.05152701 0.055608384 0.083253466 -0.13396232 -0.16638301 -0.12200661
0.06998143 0.13999172 -0.03028954 -0.037335977 0.039544296 0.028823478 -0.0535933 -0.02489322
-0.13720278 0.07778998 -0.03637909 0.1260487 -0.025046183 0.02708577 -0.03626355 0.091715716
-0.03901626 0.038093578 0.13342367 0.018625647 0.14129338 0.020087767 -0.12529802 -0.17187451
-0.16915956 -0.1460948 0.32263508 -0.17698844 -0.0032234013 0.09099353 0.12806404 0.09778541
-0.043847717 -0.3083364 0.04895738 -0.21432482 0.11322051 -0.14248353 0.03980259 -0.06584556
-0.17080441 0.013978704 0.15397857 0.045851167 -0.08109106 0.17418131 -0.027453806 -0.114234045
-0.10120423 0.28769436 0.11576694 -0.01388483 -0.18453673 0.074847326 0.03409762 0.09445898
0.022414148 0.056053102 0.007756078 0.04568111 0.07101904 -0.13087359 0.21681796 0.06534656
0.004256834 0.19798857 -0.11005895 -0.12794252 -0.06101436 0.054649454 -0.020397207 0.01616434
0.014803377 -0.06355976 0.12715054 -0.063776776 -0.091874674 -0.05742447 -0.035862815 0.12424242
0.08750287 -0.1442532 0.16763864 -0.04462817 0.058488537 -0.010394453 -0.0014558278 0.09780633
0.060666505 0.037586577 0.041854117 -0.20694676 -0.11573265 0.09096583 -0.061510786 -0.2587402
-0.06008877 0.0481986 -0.002016653 -0.07752715 -0.04021114 -0.06644231 -0.13664222 -0.07070426
-0.024549335 0.028223382 0.0065311734 0.07781354 -0.11090778 0.079654224 -0.102662414 0.011265484
-0.13057655 0.2134988 0.19009179 -0.027774345 0.027013937 -0.05733104 -0.06421096 -0.26348934
0.18839811 0.20513771 -0.068869635 -0.060259804 0.09422979 -0.02908771 -0.16881403 -0.019682739
-0.031584237 0.13395973 0.07917452 0.0566786 0.008824322 0.2768619 -0.05662406 -0.23516513
-0.0816984 0.012654105 0.21494506 0.19209838 -0.16150567 -0.09834454 -0.10477649 0.19895986
0.049432956 0.08691058 -0.15611792 0.28049055 0.06728568 0.13291977 -0.31469196 -0.14480424
0.00039852282 0.115795165 0.08961064 -0.008432362 0.09511816 0.068409905 0.035471633 0.0049669053
-0.0694368 -0.08630861 0.030367354 -0.13052717 0.01713073 -0.018787429 0.22396748 0.030613702
0.024960693 0.030272206 0.058837645 0.019804468 0.01005603 0.002743248 0.054442376 -0.23930675
0.04261434 0.16450852 0.12726784 -0.06297387 0.017542612 0.08752961 0.02676124 -0.08087955
-0.23873821 0.07792297 0.031936083 0.1995319 0.102975026 -0.111802064 -0.0023107277 -0.12260149
0.09138223 0.08888566 0.061497133 -0.18532097 0.008956797 -0.076169975 0.008305362 -0.00013282987
-0.07313054 -0.22504939 0.08372235 0.16074651 0.11546819 -0.020440886 0.08054978 0.0059228376
0.10411768 -0.0026334045 -0.0027081347 -0.011492898 0.13819839 0.051453117 0.03832826 0.023603298
-0.037155733 -0.043144636 0.04906039 -0.115832105 -0.028293425 -0.045510866 -0.20030366 -0.20305529
-0.08010612 0.028980982 0.05512978 -0.15577163 0.0017321454 -0.24913967 0.006022058 0.101155594
0.118777946 -0.020134207 -0.12407901 0.06956019 0.038154703 0.24014656 -0.1376138 -0.087370604
