MLAgentsFB/Assets/MLAgents_FlappyBird/FlappyBird_0.onnx (onnx, 91137 bytes, 6 tensors)

distribution.branches.0.bias f4 [2]
0.0 0.0
00000000: 0000 0000 0000 0000

distribution.branches.0.weight f4 [2, 128]
0.0020768438 -0.008771768 0.0038335833 0.0072612255 0.012163155 -0.00076055713 0.0051267683 0.0028554313
0.02473617 0.008171138 0.004079389 -0.013977018 -0.0026877874 0.0038709135 -0.0013139079 -0.0016977529
0.018514102 0.0035479006 0.00069564924 -0.005542166 -0.00440054 0.008065898 0.012659192 -0.00035981697
3.3731256e-05 -0.0016597118 0.0065260516 -0.010005927 -0.0012036795 0.008692999 0.002066951 -0.00080544234
-0.0061023044 -0.008995288 -0.011314838 -0.002969219 0.0016907437 -0.0035989836 -0.0075676492 -0.014222622
-0.001011889 -0.005862133 0.0075751008 -0.014431365 -0.0042670867 -0.009377538 0.011721627 -0.0028481002
-0.012770469 -0.011633058 -0.010893062 -0.007845126 -0.020806437 0.0033387213 0.010070183 -0.0019426038
0.008721454 0.011905831 -0.0040030046 0.020532155 -0.0022497803 -0.01563722 -0.0051427204 -0.0029797868
-0.009219992 -0.017376639 0.011799488 -0.020330952 -0.0037713049 -0.0016275132 0.0017738169 0.0035840634
0.0012362762 0.015711727 -0.0042307912 -0.0018002831 0.00030514927 0.012916771 -0.005161899 0.002228389
-0.013330816 -0.0038556214 0.015624727 0.016814435 -0.0016510487 -0.02482467 -0.0007718717 -0.0027274068
0.00404071 0.006207793 -0.011256396 -0.0062000663 0.010230223 0.0006018348 0.009803941 -0.017186461
-0.00040874988 -0.013252775 -0.0027107752 -0.007921826 0.01560004 0.023435121 -0.0014325307 -0.002842062
-0.0013439317 -0.004584669 0.00058741274 -0.0016009788 0.009729941 -0.0003483914 -0.013209081 0.009721667
-0.021534672 0.0011367038 0.008133561 -0.0026438301 0.0039446363 0.011476628 -0.0049548233 0.006472315
-0.011403403 -0.0031331375 -0.011794009 0.02249565 0.010447265 0.0040265913 0.0025739267 -0.015741833
-0.0018070173 -0.007061141 -0.008289246 0.00063397194 -0.0010130168 0.004020057 0.00015535872 -0.007802331
-0.0008400824 0.009934179 0.005329997 -0.001144146 0.0035466147 -0.0015220399 -0.011159432 0.0029676831
0.010292391 0.012713142 0.0024864345 0.012668473 0.0075743943 -0.0014277905 -0.017606666 -0.0043866495
0.005189587 -0.007830265 0.00030253432 0.0037981365 -0.010833642 0.0038673535 -0.007398959 0.001482067
0.005620549 0.0132034 -0.0045705806 -0.017436018 -0.011391195 -0.0012366321 -0.005419479 -0.013240329
0.004000503 0.013124275 0.0007071898 -0.014210592 0.003686998 0.008823468 -0.0022077912 0.00044285133
0.0046759075 -0.0071761063 0.021054983 0.0043874364 0.0045645842 -0.014098329 -0.008412672 0.013873515
0.011790593 -0.007491694 0.01149071 -0.007785181 -0.0052510663 0.008382261 -0.0033828018 0.011519336
0.000579822 -0.001858167 -0.004888039 0.009403084 -0.015715512 0.006795832 0.008428483 -0.0007750046
-0.0033545045 -0.0181665 0.0045489715 0.01111422 -0.0117994035 0.008382256 -0.011074401 0.012393768
0.0036947322 -0.014671299 0.018024618 -0.008290841 0.0009448584 0.019763835 0.015606661 0.0034430884
-0.016138455 -8.881099e-06 -0.011479789 -0.004718796 -0.0008042833 0.00094809564 -6.577945e-05 0.0027571192
0.00048402502 -0.00034767084 0.007395646 0.00017300292 0.0102785975 -0.0073499307 -0.014257619 0.006601786
0.0004136167 0.013554928 0.008094173 -0.015503618 0.0038738695 -0.012496338 -0.00023194971 -0.0037723773
-0.007867938 0.002202209 -0.0035169316 -0.003290159 -0.00073437457 0.0154187055 -0.0009326176 0.017699583
-0.0033010598 0.007515959 0.007953948 0.0010382952 0.0047240234 0.0040596253 -0.0020138295 0.0072938874
00000000: a81b 083b 76b7 0fbc db3c 7b3b 93ef ed3b
00000010: f847 473c 2060 47ba 73fe a73b 3022 3b3b
00000020: 82a3 ca3c 3de0 053c 65ac 853b ddff 64bc
00000030: 9725 30bb 27af 7d3b 6f37 acba 2287 deba
00000040: e3aa 973c e583 683b 3b5c 363a 0f9b b5bb
00000050: 6832 90bb d426 043c 8068 4f3c d1a5 bcb9
00000060: a97a 0d38 b08a d9ba 7dd8 d53b e6ef 23bc
00000070: c8c4 9dba 156d 0e3c af75 073b 5224 53ba
00000080: d7f5 c7bb f960 13bc df61 39bc 3a97 42bb
00000090: f29b dd3a eddc 6bbb 0bfa f7bb 0006 69bc
000000a0: 5ca1 84ba 2317 c0bb 8d38 f83b 8871 6cbc
000000b0: ebd2 8bbb 3fa4 19bc 110c 403c 31a7 3abb
000000c0: 3b3b 51bc 9598 3ebc d078 32bc d888 00bc
000000d0: 4372 aabc 73ce 5a3b 69fd 243c f89e feba
000000e0: 6ee4 0e3c ad10 433c a32b 83bb 0d33 a83c
000000f0: 0d71 13bb a119 80bc 4484 a8bb 8748 43bb
00000100: 730f 17bc 7459 8ebc a452 413c 198d a6bc
00000110: ff27 77bb 4852 d5ba 6b7f e83a 9be2 6a3b
00000120: 8c0a a23a e1b5 803c 73a2 8abb 7af7 ebba
00000130: 71fc 9f39 dda0 533c 2625 a9bb 2a0a 123b
00000140: 7f69 5abc 98ae 7cbb dbfe 7f3c 6dbe 893c
00000150: 0068 d8ba 1b5d cbbc 6f57 4aba 4bbe 32bb
00000160: ef67 843b be6a cb3b bf6c 38bc ed29 cbbb
00000170: aa9c 273c 73c4 1d3a b5a0 203c 9fca 8cbc
00000180: 7b4d d6b9 2b22 59bc 43a7 31bb 8cca 01bc
00000190: 4f97 7f3c 03fb bf3c c1c3 bbba e341 3abb
000001a0: dd26 b0ba fe3a 96bb 9afc 193a efd7 d1ba
000001b0: 556a 1f3c 4da8 b6b9 e76a 58bc a047 1f3c
000001c0: 7b69 b0bc 73fd 943a a142 053c 1c44 2dbb
000001d0: 0242 813b 7708 3c3c 125c a2bb b715 d43b
000001e0: 57d5 3abc 5355 4dbb a93b 41bc cc48 b83c
000001f0: 012b 2b3c 7ff1 833b 53af 283b 04f5 80bc
00000200: 70d9 ecba 2561 e7bb 9ecf 07bc 2331 263a
00000210: 34c7 84ba afba 833b cae7 2239 b2aa ffbb
00000220: fa38 5cba f7c2 223c 41a7 ae3b 2bf7 95ba
00000230: 526e 683b 2f7f c7ba 0dd6 36bc 767d 423b
00000240: 6ba1 283c c84a 503c 73f3 223b 6d8f 4f3c
00000250: a032 f83b b324 bbba db3b 90bc e2bd 8fbb
00000260: 690d aa3b 834a 00bc 789d 9e39 28ea 783b
00000270: 977f 31bc 6d73 7d3b f772 f2bb eb41 c23a
00000280: 952c b83b 1353 583c cfc4 95bb fbd5 8ebc
00000290: 22a2 3abc 7d16 a2ba e395 b1bb f7ed 58bc
000002a0: a716 833b 3307 573c b462 393a 8bd3 68bc
000002b0: 90a1 713b 4f90 103c 97b0 10bb 802e e839
000002c0: 5b38 993b 8b25 ebbb 807b ac3c 7cc4 8f3b
000002d0: 8292 953b adfc 66bc 4ed5 09bc bd4d 633c
000002e0: 552d 413c e27c f5bb 8843 3c3c d51a ffbb
000002f0: 2311 acbb c055 093c ffb1 5dbb 99bb 3c3c
00000300: 32ff 173a bd8d f3ba d82b a0bb 650f 1a3c
00000310: d1bd 80bc 92af de3b 9f17 0a3c ae29 4bba
00000320: 3fd7 5bbb e9d1 94bc 8a0f 953b 6b18 363c
00000330: 4952 41bc bb55 093c 6871 35bc 3b0f 4b3c
00000340: 5223 723b e35f 70bc 5da8 933c 4fd6 07bc
00000350: 60b0 773a c4e7 a13c 15b3 7f3c 70a5 613b
00000360: cb34 84bc 0800 15b7 ba15 3cbc 21a0 9abb
00000370: 8ad6 52ba 9f89 783a 13f3 89b8 c9b0 343b
00000380: bdc4 fd39 9747 b6b9 2d57 f23b 1e68 3539
00000390: 9067 283c b0d7 f0bb ca98 69bc cb53 d83b
000003a0: b2da d839 7d15 5e3c 6c9d 043c e302 7ebc
000003b0: bfe0 7d3b 71bd 4cbc 8737 73b9 fd39 77bb
000003c0: 86e8 00bc f052 103b 527c 66bb b59f 57bb
000003d0: 0b83 40ba bd9e 7c3c e87a 74ba b7fe 903c
000003e0: 9856 58bb 6f48 f63b 4751 023c 6817 883a
000003f0: fbcb 9a3b 9b06 853b 74fa 03bb 9001 ef3b

network_body.linear_encoder.seq_layers.0.bias f4 [128]
0.0 0.0 0.0 0.0 0.0 0.0 0.0 0.0
0.0 0.0 0.0 0.0 0.0 0.0 0.0 0.0
0.0 0.0 0.0 0.0 0.0 0.0 0.0 0.0
0.0 0.0 0.0 0.0 0.0 0.0 0.0 0.0
0.0 0.0 0.0 0.0 0.0 0.0 0.0 0.0
0.0 0.0 0.0 0.0 0.0 0.0 0.0 0.0
0.0 0.0 0.0 0.0 0.0 0.0 0.0 0.0
0.0 0.0 0.0 0.0 0.0 0.0 0.0 0.0
0.0 0.0 0.0 0.0 0.0 0.0 0.0 0.0
0.0 0.0 0.0 0.0 0.0 0.0 0.0 0.0
0.0 0.0 0.0 0.0 0.0 0.0 0.0 0.0
0.0 0.0 0.0 0.0 0.0 0.0 0.0 0.0
0.0 0.0 0.0 0.0 0.0 0.0 0.0 0.0
0.0 0.0 0.0 0.0 0.0 0.0 0.0 0.0
0.0 0.0 0.0 0.0 0.0 0.0 0.0 0.0
0.0 0.0 0.0 0.0 0.0 0.0 0.0 0.0
00000000: 0000 0000 0000 0000 0000 0000 0000 0000
00000010: 0000 0000 0000 0000 0000 0000 0000 0000
00000020: 0000 0000 0000 0000 0000 0000 0000 0000
00000030: 0000 0000 0000 0000 0000 0000 0000 0000
00000040: 0000 0000 0000 0000 0000 0000 0000 0000
00000050: 0000 0000 0000 0000 0000 0000 0000 0000
00000060: 0000 0000 0000 0000 0000 0000 0000 0000
00000070: 0000 0000 0000 0000 0000 0000 0000 0000
00000080: 0000 0000 0000 0000 0000 0000 0000 0000
00000090: 0000 0000 0000 0000 0000 0000 0000 0000
000000a0: 0000 0000 0000 0000 0000 0000 0000 0000
000000b0: 0000 0000 0000 0000 0000 0000 0000 0000
000000c0: 0000 0000 0000 0000 0000 0000 0000 0000
000000d0: 0000 0000 0000 0000 0000 0000 0000 0000
000000e0: 0000 0000 0000 0000 0000 0000 0000 0000
000000f0: 0000 0000 0000 0000 0000 0000 0000 0000
00000100: 0000 0000 0000 0000 0000 0000 0000 0000
00000110: 0000 0000 0000 0000 0000 0000 0000 0000
00000120: 0000 0000 0000 0000 0000 0000 0000 0000
00000130: 0000 0000 0000 0000 0000 0000 0000 0000
00000140: 0000 0000 0000 0000 0000 0000 0000 0000
00000150: 0000 0000 0000 0000 0000 0000 0000 0000
00000160: 0000 0000 0000 0000 0000 0000 0000 0000
00000170: 0000 0000 0000 0000 0000 0000 0000 0000
00000180: 0000 0000 0000 0000 0000 0000 0000 0000
00000190: 0000 0000 0000 0000 0000 0000 0000 0000
000001a0: 0000 0000 0000 0000 0000 0000 0000 0000
000001b0: 0000 0000 0000 0000 0000 0000 0000 0000
000001c0: 0000 0000 0000 0000 0000 0000 0000 0000
000001d0: 0000 0000 0000 0000 0000 0000 0000 0000
000001e0: 0000 0000 0000 0000 0000 0000 0000 0000
000001f0: 0000 0000 0000 0000 0000 0000 0000 0000

network_body.linear_encoder.seq_layers.0.weight f4 [128, 42]
-0.023214635 -0.06309412 0.013705353 -0.11065718 -0.1379129 0.062415764 0.13025364 -0.06491849
0.006162283 -0.029425746 0.13449028 0.06673213 -0.19269845 0.19033055 -0.015053541 -0.031609003
-0.16074185 0.08013698 0.14672402 0.28077117 -0.015710853 0.3111545 0.32107157 -0.055789124
-0.16521727 0.13665082 -0.1053799 -0.03950359 -0.04849907 -0.01930971 0.15369289 0.297763
-0.0043518483 0.18348031 -0.26878673 -0.06797249 0.08800802 0.19071773 0.043183163 -0.025715226
-0.24742842 -0.24576385 -0.10836532 0.043544084 0.053073946 -0.01566538 -0.05050537 -0.16023415
-0.007982256 0.14000821 -0.07781502 -0.16804193 0.12491913 0.084643744 -0.039460484 -0.18644287
0.050590437 -0.17403781 0.22551584 0.068383984 -0.061101034 0.11485589 -0.086846955 0.14698815
-0.11008172 0.082397595 -0.17239511 0.24557367 -0.10809317 -0.13070735 0.27238953 0.32520837
-0.018439334 -0.15644275 0.019634888 0.2371134 0.072655655 0.063800916 0.21065874 -0.06272296
-0.034518894 0.36436647 -0.33679432 0.22882335 -0.07760339 -0.121300764 -0.0152678145 0.1586005
0.05714423 -0.1937706 0.15961099 0.0013803553 0.05372297 -0.016424749 -0.0747849 0.10187829
-0.11020192 0.13650055 0.06978765 -0.072165415 0.09883583 -0.11220839 0.112318926 -0.27491048
0.13058953 0.14863981 -0.022107769 0.0863397 0.07341763 0.11986263 0.10114994 -0.11702935
-0.3787559 -0.14310323 0.08368531 0.18673673 0.027552826 -0.026502565 0.09261662 -0.031313147
-0.11130785 -0.24515522 0.37337598 -0.057102013 0.3339281 -0.036120642 0.005984215 0.030411886
0.0104975 0.0024101068 0.1434994 0.031536184 0.08819552 -0.19092724 0.06356343 0.27894866
0.12644257 -0.078709565 -0.29304108 -0.13609514 -0.03831017 -0.23080547 -0.19331935 0.0051268768
0.13318473 -0.062498815 0.25206164 -0.10759933 0.020197285 -0.02829442 -0.24671236 0.13810557
0.04856892 0.22106573 0.10974985 -0.11134971 -0.0057079247 0.08053745 -0.20070933 -0.14529085
-0.022849519 0.016271595 0.1013187 -0.044957936 -0.008398218 -0.06130775 0.34966886 -0.11571284
-0.07015523 0.06177944 0.123339355 -0.09698815 0.047529493 -0.10324684 -0.13038324 -0.054799173
-0.05653435 -0.14765704 -0.16109766 0.048112456 0.056170095 -0.019574214 -0.33738124 0.077396914
-0.28664783 0.11278508 0.1462811 0.16883184 0.14293934 0.010331572 -0.16961235 0.16138504
-0.09662081 0.032195523 -0.30053744 -0.18871824 -0.08120595 0.033376157 0.1304488 -0.001148693
0.04518198 -0.1944338 0.035709847 -0.021265825 -0.057554204 -0.21325277 0.08187432 0.23447345
0.05868205 -0.12134746 -0.18961726 0.008928781 -0.1899608 0.15722533 0.11420475 -0.08910434
-0.059771493 0.3526385 -0.015057524 0.02830423 0.055728417 0.04481915 -0.008602103 -0.1897882
0.19902572 -0.0036021657 0.21760844 0.16412619 0.2134282 -0.041595094 0.13385098 0.1834169
-0.37120283 0.2041351 -0.26911578 -0.06875029 -0.07260451 0.13614485 0.27957344 0.17458352
-0.075170204 -0.09441928 0.020536507 0.11615702 0.15380234 -0.13809337 0.10441483 -0.21239066
0.082827106 0.1510041 0.1602292 0.04847939 -0.035432536 -0.15484327 0.011164213 0.01381087
00000000: 9e2c bebc 7d37 81bd 6b8c 603c 3ba0 e2bd
00000010: 0a39 0dbe aca7 7f3d 3661 053e fcf3 84bd
00000020: faec c93b 430e f1bc d2b7 093e dbaa 883d
00000030: be52 45be 03e6 423e 21a3 76bc 7178 01bd
00000040: 8399 24be db1e a43d d23e 163e 3dc1 8f3e
00000050: 0cb4 80bc a54f 9f3e 7e63 a43e 2383 64bd
00000060: b72e 29be 31ee 0b3e 6bd1 d7bd 84ce 21bd
00000070: f6a6 46bd 662f 9ebc ab61 1d3e 6474 983e
00000080: f399 8ebb 43e2 3b3e 6a9e 89be 2935 8bbd
00000090: 8c3d b43d 824b 433e d4e0 303d bda8 d2bc
000000a0: e05d 7dbe 85a9 7bbe a3ee ddbd 485b 323d
000000b0: 1164 593d af54 80bc b8de 4ebd 6c14 24be
000000c0: 02c8 02bc 505e 0f3e 7b5d 9fbd 2f13 2cbe
000000d0: 9ad5 ff3d b359 ad3d 51a1 21bd e1ea 3ebe
000000e0: eb37 4f3d f836 32be a0ed 663e e70c 8c3d
000000f0: 1445 7abd 9139 eb3d d1dc b1bd 1084 163e
00000100: 8672 e1bd 12c0 a83d 5888 30be aa77 7b3e
00000110: f45f ddbd 26d8 05be a476 8b3e b681 a63e
00000120: 160e 97bc 8732 20be 58d9 a03c dbcd 723e
00000130: 7dcc 943d 0eaa 823d edb6 573e e574 80bd
00000140: af63 0dbd 3e8e ba3e 4e70 acbe ab50 6a3e
00000150: 87ee 9ebd 896c f8bd db25 7abc 2b68 223e
00000160: 1110 6a3d cd6b 46be 1071 233e 0aed b43a
00000170: 9e0c 5c3d 328d 86bc d328 99bd 91a5 d03d
00000180: 8bb1 e1bd cdc6 0b3e d4ec 8e3d 76cb 93bd
00000190: 716a ca3d 83cd e5bd 7707 e63d 11c1 8cbe
000001a0: 43b9 053e 0935 183e 5a1b b5bc ded2 b03d
000001b0: fb5b 963d 8a7a f53d b327 cf3d 15ad efbd
000001c0: 4bec c1be a789 12be 3463 ab3d ea37 3f3e
000001d0: 77b6 e13c e81b d9bc c8ad bd3d 3742 00bd
000001e0: 5ff5 e3bd f809 7bbe 232b bf3e cde3 69bd
000001f0: a0f8 aa3e 3df3 13bd 3c17 c43b 5922 f93c
00000200: b5fd 2b3c e2f2 1d3b 82f1 123e 162c 013d
00000210: da9f b43d 6e82 43be 8b2d 823d 5cd2 8e3e
00000220: 297a 013e 7b32 a1bd 7b09 96be 865c 0bbe
00000230: 20eb 1cbd 4558 6cbe 82f5 45be 5cff a73b
00000240: 9461 083e c2fe 7fbd 390e 813e 0a5d dcbd
00000250: c774 a53c b3c9 e7bc 2aa2 7cbe 8c6b 0d3e
00000260: 34f0 463d 0e5f 623e 88c4 e03d 510b e4bd
00000270: 8b09 bbbb d2f0 a43d bf86 4dbe 20c7 14be
00000280: ea2e bbbc 024c 853c 2e80 cf3d d025 38bd
00000290: ae98 09bc d61d 7bbd cc07 b33e dafa ecbd
000002a0: 8cad 8fbd 700c 7d3d 5899 fc3d b9a1 c6bd
000002b0: 49ae 423d 1473 d3bd 2f83 05be 1975 60bd
000002c0: 9090 67bd 6833 17be c9f6 24be 9111 453d
000002d0: 9d12 663d 1a5a a0bc 3cbd acbe 4682 9e3d
000002e0: 81c3 92be ddfb e63d b6ca 153e 41e2 2c3e
000002f0: b15e 123e c145 293c dcae 2dbe 1f42 253e
00000300: 22e1 c5bd 74df 033d 0be0 99be 5b3f 41be
00000310: 4e4f a6bd 70b5 083d 5f94 053e be8f 96ba
00000320: bd10 393d a719 47be 7d44 123d ab35 aebc
00000330: f5bd 6bbd ef5e 5abe b9ad a73d cf19 703e
00000340: 975c 703d 0485 f8bd 072b 42be 064a 123c
00000350: 1585 42be adff 203e 2ee4 e93d 567c b6bd
00000360: f4d2 74bd 098d b43e d5b3 76bc 46de e73c
00000370: 7b43 643d 4994 373d d6ef 0cbc d757 42be
00000380: 66cd 4b3e 5012 6cbb bfd4 5e3e b210 283e
00000390: ec8c 5a3e 9e5f 2abd 3b10 093e a4d1 3b3e
000003a0: 4c0e bebe cb08 513e 8bc9 89be f4cc 8cbd
000003b0: acb1 94bd 8e69 0b3e 4024 8f3e 06c6 323e
000003c0: d6f2 99bd e55e c1bd 2d3c a83c bbe3 ed3d
000003d0: 5c7e 1d3e 5968 0dbe 71d7 d53d f07c 59be
000003e0: 42a1 a93d d2a0 1a3e 2013 243e 5392 463d
000003f0: b521 11bd 3c8f 1ebe 1aea 363c fd46 623c

network_body.linear_encoder.seq_layers.2.bias f4 [128]
0.0 0.0 0.0 0.0 0.0 0.0 0.0 0.0
0.0 0.0 0.0 0.0 0.0 0.0 0.0 0.0
0.0 0.0 0.0 0.0 0.0 0.0 0.0 0.0
0.0 0.0 0.0 0.0 0.0 0.0 0.0 0.0
0.0 0.0 0.0 0.0 0.0 0.0 0.0 0.0
0.0 0.0 0.0 0.0 0.0 0.0 0.0 0.0
0.0 0.0 0.0 0.0 0.0 0.0 0.0 0.0
0.0 0.0 0.0 0.0 0.0 0.0 0.0 0.0
0.0 0.0 0.0 0.0 0.0 0.0 0.0 0.0
0.0 0.0 0.0 0.0 0.0 0.0 0.0 0.0
0.0 0.0 0.0 0.0 0.0 0.0 0.0 0.0
0.0 0.0 0.0 0.0 0.0 0.0 0.0 0.0
0.0 0.0 0.0 0.0 0.0 0.0 0.0 0.0
0.0 0.0 0.0 0.0 0.0 0.0 0.0 0.0
0.0 0.0 0.0 0.0 0.0 0.0 0.0 0.0
0.0 0.0 0.0 0.0 0.0 0.0 0.0 0.0
00000000: 0000 0000 0000 0000 0000 0000 0000 0000
00000010: 0000 0000 0000 0000 0000 0000 0000 0000
00000020: 0000 0000 0000 0000 0000 0000 0000 0000
00000030: 0000 0000 0000 0000 0000 0000 0000 0000
00000040: 0000 0000 0000 0000 0000 0000 0000 0000
00000050: 0000 0000 0000 0000 0000 0000 0000 0000
00000060: 0000 0000 0000 0000 0000 0000 0000 0000
00000070: 0000 0000 0000 0000 0000 0000 0000 0000
00000080: 0000 0000 0000 0000 0000 0000 0000 0000
00000090: 0000 0000 0000 0000 0000 0000 0000 0000
000000a0: 0000 0000 0000 0000 0000 0000 0000 0000
000000b0: 0000 0000 0000 0000 0000 0000 0000 0000
000000c0: 0000 0000 0000 0000 0000 0000 0000 0000
000000d0: 0000 0000 0000 0000 0000 0000 0000 0000
000000e0: 0000 0000 0000 0000 0000 0000 0000 0000
000000f0: 0000 0000 0000 0000 0000 0000 0000 0000
00000100: 0000 0000 0000 0000 0000 0000 0000 0000
00000110: 0000 0000 0000 0000 0000 0000 0000 0000
00000120: 0000 0000 0000 0000 0000 0000 0000 0000
00000130: 0000 0000 0000 0000 0000 0000 0000 0000
00000140: 0000 0000 0000 0000 0000 0000 0000 0000
00000150: 0000 0000 0000 0000 0000 0000 0000 0000
00000160: 0000 0000 0000 0000 0000 0000 0000 0000
00000170: 0000 0000 0000 0000 0000 0000 0000 0000
00000180: 0000 0000 0000 0000 0000 0000 0000 0000
00000190: 0000 0000 0000 0000 0000 0000 0000 0000
000001a0: 0000 0000 0000 0000 0000 0000 0000 0000
000001b0: 0000 0000 0000 0000 0000 0000 0000 0000
000001c0: 0000 0000 0000 0000 0000 0000 0000 0000
000001d0: 0000 0000 0000 0000 0000 0000 0000 0000
000001e0: 0000 0000 0000 0000 0000 0000 0000 0000
000001f0: 0000 0000 0000 0000 0000 0000 0000 0000

network_body.linear_encoder.seq_layers.2.weight f4 [128, 128]
0.04435796 0.14592303 -0.003807949 0.20224679 -0.05999366 -0.17649618 -0.0023468353 0.084108636
-0.05637922 -0.0252129 -0.03133283 -0.0805567 0.121662274 0.09889821 -0.014255422 0.014352831
-0.005809057 0.054369416 0.004170749 -0.07945124 0.12024363 0.093361266 -0.16024768 -0.065813266
-0.07165183 -0.06527581 0.06227213 -0.18572816 -4.1296622e-05 0.04370119 -0.011361537 0.03615296
0.03404646 0.032275707 -0.052436963 -0.15603073 -0.10457736 -0.036406823 0.057658494 0.10988389
0.13200538 0.0024816894 -0.13308166 -0.07793578 0.10666142 0.08027056 0.08179288 -0.01913128
0.20888391 0.1026669 0.07074157 0.0439007 0.009448203 -0.025498908 0.16282912 0.14045721
0.025979321 -0.04517639 0.08707212 -0.0003746812 -0.12751344 -0.11877946 0.14371417 -0.020661626
0.061361663 0.0991375 0.07946781 0.072524406 0.094487205 0.06065754 -0.07681693 0.001204649
-0.032527458 0.048916355 -0.091774695 0.036854874 0.023480006 0.10792725 -0.004022999 -0.10350556
-0.099037156 -0.117192 -0.080581404 -0.013983958 0.05984341 -0.16813394 -0.0032732533 -0.12264601
-0.051272325 0.0037041665 0.00095319835 -0.03770994 0.10647205 -0.020464526 -0.123181514 0.005039103
-0.021923142 -0.1371588 -0.050245576 -0.027755996 -0.21597922 -0.028340584 0.047569014 0.18368673
0.12044017 0.0692933 0.020888442 0.15965651 0.010468154 0.040492043 0.13027237 -0.01708707
0.052261397 0.12539108 -0.023509167 -0.04650307 0.120837055 0.13622299 -0.042090323 0.085922666
0.019017821 0.038960487 -0.023620974 0.031730004 0.16657414 -0.031173326 0.06832058 0.10050509
-0.21689725 -0.022578498 0.056118447 0.009410372 -0.06596214 0.16031228 0.083237335 -0.064750776
-0.027769618 0.08944728 -0.09189232 -0.09982865 -0.03009027 0.032526035 -0.086713925 -0.09935492
0.041166294 -0.113255724 -0.022679284 0.0008073793 0.03887127 0.10314903 0.07803539 -0.100711055
-0.10514771 -0.105423346 0.0028565237 0.036533926 -0.010921906 -0.08364001 -0.09602545 -0.044270363
-0.017995382 -0.015754707 -0.020360747 -0.0302666 0.016267376 0.11249205 -0.0018645958 0.23196171
0.010249657 0.0074996543 -0.060924396 0.019284934 0.018344278 0.034859806 -0.0018614081 0.07708638
0.015191908 0.11036611 -0.035551377 0.046974745 0.12691303 -0.023581792 -0.027503174 0.061352443
0.031869557 -0.037269097 0.07632088 0.028584098 0.013282236 0.07994332 0.015516063 -0.05129101
0.0029253024 0.076059826 0.101468556 0.034276422 0.05317775 0.087959014 -0.027567016 -0.109901175
0.0320772 0.0644539 -0.069412895 -0.12837604 0.0010575936 0.14489442 0.05032133 -0.11235494
0.10333369 -0.06642319 -0.02808656 0.007850132 0.06615111 -0.105327025 0.048870187 0.045599923
-0.12987037 0.067666024 -0.116482444 -0.028736027 0.0043381695 -0.022417732 0.044942807 0.0987102
-0.059263114 -0.011069659 0.0184668 0.14503042 0.16059624 0.005586583 0.05481728 0.10019937
-0.1685776 0.016042864 0.03379421 -0.09518285 0.096709765 -0.06070278 -0.029501213 0.025910465
-0.064420894 0.14741285 0.054224394 0.033635747 -0.020551216 -0.06715175 -0.15041915 -0.06601956
0.08431357 0.22290207 -0.026361542 -0.1162894 0.02921375 0.048524816 0.011011848 -0.08036708
00000000: b1b0 353d d96c 153e c88e 79bb c819 4f3e
00000010: e9bb 75bd 6abb 34be 5dcd 19bb 2641 ac3d
00000020: e6ed 66bd 498b cebc db56 00bd e9fa a4bd
00000030: 122a f93d 258b ca3d 938f 69bc 2328 6b3c
00000040: e759 bebb 77b2 5e3d c7aa 883b 55b7 a2bd
00000050: 4b42 f63d 3134 bf3d f817 24be 1bc9 86bd
00000060: 32be 92bd 53af 85bd 1011 7f3d 862f 3ebe
00000070: e935 2db8 0500 333d bd25 3abc 2015 143d
00000080: 4d74 0b3d 8833 043d 24c8 56bd 85c6 1fbe
00000090: a82c d6bd 521f 15bd 502b 6c3d ce0a e13d
000000a0: 6b2c 073e d7a3 223b 8f46 08be cb9c 9fbd
000000b0: 4d71 da3d e464 a43d 0783 a73d 34b9 9cbc
000000c0: aae5 553e 0643 d23d f5e0 903d 38d1 333d
000000d0: a3cc 1a3c 16e3 d0bc adbc 263e 04d4 0f3e
000000e0: 96d2 d43c e10a 39bd de52 b23d dc70 c4b9
000000f0: e292 02be a542 f3bd cf29 133e 9242 a9bc
00000100: 5e56 7b3d 9a08 cb3d 05c0 a23d ad87 943d
00000110: 8282 c13d 0a74 783d 3252 9dbd 50e5 9d3a
00000120: 833b 05bd 845c 483d 5ff4 bbbd 23f5 163d
00000130: 2459 c03c f608 dd3d 5dd3 83bb b9fa d3bd
00000140: fed3 cabd 5c02 f0bd dd07 a5bd f91c 65bc
00000150: 5d1e 753d 4e2b 2cbe 1484 56bb d52d fbbd
00000160: ee02 52bd 9ac1 723b 0fe0 793a bd75 1abd
00000170: 050e da3d 39a5 a7bc 9746 fcbd 0f1f a53b
00000180: 2998 b3bc 5b73 0cbe 4ece 4dbd 8b60 e3bc
00000190: a829 5dbe 832a e8bc bad7 423d 6018 3c3e
000001a0: 56a9 f63d a5e9 8d3d 3d1e ab3c ff7c 233e
000001b0: 9f82 2b3c fcda 253d 1f66 053e 2ffa 8bbc
000001c0: 0c10 563d 8566 003e 4c96 c0bc 017a 3ebd
000001d0: 6b79 f73d 0a7e 0b3e e766 2cbd 39f8 af3d
000001e0: 43cb 9b3c 0895 1f3d c680 c1bc 52f7 013d
000001f0: 6992 2a3e 345f ffbc a9eb 8b3d 9dd5 cd3d
00000200: 501a 5ebe 8bf6 b8bc 75dc 653d f62d 1a3c
00000210: 2917 87bd e728 243e 5678 aa3d 0e9c 84bd
00000220: 1c7d e3bc 2330 b73d 0a32 bcbd f772 ccbd
00000230: df7f f6bc 053a 053d 1297 b1bd 987a cbbd
00000240: fd9d 283d 9ef2 e7bd e8c9 b9bc 4fa6 533a
00000250: 7b37 1f3d cc3f d33d 05d1 9f3d 9941 cebd
00000260: af57 d7bd 32e8 d7bd 8434 3b3b 99a4 153d
00000270: cbf1 32bc 744b abbd fea8 c4bd d754 35bd
00000280: 0d6b 93bc 0410 81bc 95cb a6bc a9f1 f7bc
00000290: 2943 853c 3b62 e63d 7465 f4ba 5f87 6d3e
000002a0: 2dee 273c a9bf f53b dc8b 79bd 70fb 9d3c
000002b0: bd46 963c 28c9 0e3d 7efa f3ba 77df 9d3d
000002c0: 7be7 783c a107 e23d 529e 11bd 9768 403d
000002d0: 7df5 013e 9a2e c1bc 564e e1bc b34c 7b3d
000002e0: a789 023d 7ba7 18bd 1f4e 9c3d 3329 ea3c
000002f0: bc9d 593c 53b9 a33d 1637 7e3c 8616 52bd
00000300: 6eb6 3f3b 41c5 9b3d bfce cf3d 6f65 0c3d
00000310: ead0 593d db23 b43d 39d4 e1bc de13 e1bd
00000320: 6263 033d 6800 843d 5928 8ebd 0275 03be
00000330: f49e 8a3a 345f 143e bd1d 4e3d 591a e6bd
00000340: 9da0 d33d e208 88bd c915 e6bc d79d 003c
00000350: 3c7a 873d b2b5 d7bd 1b2c 483d fcc6 3a3d
00000360: bdfc 04be 7c94 8a3d 598e eebd d167 ebbc
00000370: 3427 8e3b 64a5 b7bc f315 383d 9328 ca3d
00000380: e1bd 72bd 845d 35bc b047 973c db82 143e
00000390: 5773 243e a80f b73b 1688 603d 5435 cd3d
000003a0: 9b9f 2cbe 536c 833c cc6b 0a3d 3aef c2bd
000003b0: c50f c63d 7aa3 78bd 87ac f1bc 2f42 d43c
000003c0: 1aef 83bd 65f3 163e 661a 5e3d a3c5 093d
000003d0: 065b a8bc db86 89bd 7a07 1abe 4335 87bd
000003e0: 98ac ac3d 7140 643e 29f4 d7bc 2329 eebd
000003f0: ad51 ef3c f5c1 463d 0a6b 343c 7f97 a4bd
