MLAgentsFB/Assets/MLAgents_FlappyBird/FlappyBird.onnx (onnx, 91137 bytes, 6 tensors)

distribution.branches.0.bias f4 [2]
000000 e2 3d 75 3d e2 3d 75 bd
       0.05987347 -0.05987347

distribution.branches.0.weight f4 [2, 128]
000000 e8 bf 59 3b 06 ec d6 3c eb c7 e1 bd 1c a9 7e bb
       0.0033225957 0.026235592 -0.110244595 -0.0038858121
000010 f0 05 ad 3d cb c2 1e 3d a2 6e d8 3d e3 6a 58 3b
       0.08448398 0.038759988 0.105679765 0.0033022694
000020 84 55 47 bc 48 7c c0 3d 93 83 e3 3c de b2 af bd
       -0.012166385 0.09398705 0.0277727 -0.08579038
000030 a7 b3 f1 bd a2 18 38 be a7 b1 dc 3d 53 9c ca 3d
       -0.11801844 -0.17978147 0.10776072 0.09893098
000040 23 8d 1f be 54 15 ea 3d 7b b2 6a bc 13 49 6e 3d
       -0.15581183 0.11429849 -0.01432478 0.058175158
000050 78 47 f0 bb c2 69 7a 3e 28 8d 12 3d 8f 4c ed 3c
       -0.0073327385 0.24454406 0.03577915 0.02896717
000060 fc 1c 1e 3d c9 23 c2 bd 27 97 a9 3d c0 0f cf bd
       0.03860186 -0.09479482 0.08280783 -0.10110426
000070 15 cd 8c 3d ff ba 91 bd dc a5 74 bd 15 96 0c be
       0.06875054 -0.07115745 -0.05972849 -0.13729127
000080 fe cb ba bd 26 97 0e 3e ed c7 45 3d 94 0a 2d bd
       -0.0912094 0.13924846 0.048286367 -0.042246416
000090 b0 e3 95 3d dc 2f 66 3d 02 1b ca bc 99 6f 62 3d
       0.073188186 0.056197986 -0.024671081 0.05528221
0000a0 30 41 d2 3d 9f 53 3d be 67 70 3d 3d a6 5e 72 3d
       0.1026634 -0.1848893 0.046249773 0.059172295
0000b0 aa 16 0c bd 94 71 ec 3b 8a dd 29 be c5 61 c2 3d
       -0.0342013 0.007215688 -0.16588417 0.09491304
0000c0 ed fe 19 be 2b 9a 1e 3d 5c f9 e1 3d a1 95 4d 3d
       -0.15038653 0.038721245 0.1103389 0.050191525
0000d0 84 38 a5 3d 86 8a f3 bd 1e 3f 0e 3c 60 10 d4 3d
       0.0806742 -0.118916556 0.0086820405 0.10354686
0000e0 f6 4c 5d 3c e0 b9 aa bd 86 0d 77 3d 35 f5 df 3d
       0.013507118 -0.08336234 0.06031563 0.109354414
0000f0 4c fe 3c 3c a7 e6 31 bc 84 7f 9b bd 27 84 d6 bc
       0.0115352385 -0.010858214 -0.07592681 -0.026186062
000100 7c a9 a7 bd 91 f8 b0 bd bc 40 96 3c 40 24 10 3c
       -0.081866235 -0.0864116 0.018341415 0.008797705
000110 e5 74 d6 3d d8 32 67 bc 5c 8b a9 bd 64 6a 41 3c
       0.104715146 -0.014111243 -0.08278534 0.011805151
000120 69 96 ac bd 7a 5b a0 3d 36 7b 4c 3c 95 7d 7e bd
       -0.08427126 0.07829948 0.012480548 -0.062131483
000130 b7 07 60 bd b1 1c a5 bd b6 8f 0b 3c 37 7a 44 3c
       -0.054694857 -0.08062113 0.00851815 0.011992029
000140 31 4b 17 3d 1d c2 c9 3d 87 43 57 3d 06 ae 11 be
       0.036936942 0.09851477 0.052554633 -0.14226541
000150 22 89 dd bc bd dc 57 bd 1d 00 3a bb f1 4d b4 3c
       -0.02704293 -0.052700747 -0.0028381415 0.022009822
000160 12 85 43 3d e8 fd 6b 3d a7 61 b5 3d b5 fa 46 be
       0.047734328 0.05761519 0.08856516 -0.19431575
000170 ac 41 2f be a0 b3 a3 bd b4 35 a8 bd 6d 00 65 3a
       -0.17114896 -0.07993245 -0.08213368 0.000873572
000180 93 0e a5 3d 37 cd 1e 3e ea 71 ec bd b0 18 47 bc
       0.080594204 0.15507971 -0.11545165 -0.012151882
000190 c4 14 7c 3e c1 f0 cf bd 90 91 a4 bd c6 b3 d9 bd
       0.24617296 -0.10153342 -0.08035576 -0.10629992
0001a0 3d fa 33 be 7b 62 7f 3d 4b ad 89 3c c5 ea cb 3c
       -0.17575927 0.062349778 0.016806265 0.02489222
0001b0 9c 35 07 3d 9d 15 e6 bd 6e b4 bf bb b8 9b cd 3d
       0.03301011 -0.11234591 -0.0058503663 0.100394666
0001c0 69 82 ca bd d3 91 23 bc 45 cb a9 3d 87 2f 39 be
       -0.09888155 -0.009983498 0.08290724 -0.18084536
0001d0 45 02 03 be 89 de ab bd a7 33 56 3d 93 e4 fe 3c
       -0.12793835 -0.083920546 0.052295353 0.031114852
0001e0 c5 87 eb 3d 76 d1 22 be 5b c5 07 be d3 8b ae 3c
       0.11500505 -0.15900216 -0.13258879 0.021306908
0001f0 1b 15 b4 3d dc eb 79 3e 59 e8 b8 bd 75 df bb bc
       0.08793088 0.2440638 -0.09028692 -0.022933701
000200 2f c9 e6 ba da e1 e9 bc e2 d3 a6 3d 01 89 5c 3b
       -0.0017607565 -0.028550077 0.08145882 0.0033650997
000210 c3 1f 87 bd 96 21 22 bd 89 ef ac bd e6 25 86 bb
       -0.06597855 -0.03958281 -0.08444125 -0.0040938733
000220 6f 7d c5 bb 10 95 d1 bd 2a 33 0c bd 51 c8 a3 3d
       -0.0060269157 -0.102335095 -0.03422848 0.07997192
000230 0c fa f7 3d e8 00 34 3e 73 94 d2 bd 24 98 97 bd
       0.121082395 0.1757847 -0.10282221 -0.074020654
000240 3f 34 26 3e 95 05 bd bd f2 05 85 bb b5 fa 71 bd
       0.16230868 -0.0922958 -0.0040595466 -0.059076983
000250 a3 65 cd bc 24 75 7a be ac 63 07 bd 0e 34 b3 bc
       -0.025072878 -0.24458748 -0.03305404 -0.021875408
000260 9f 83 cc bc d8 94 a4 3d d8 c1 9c bd 46 55 ab 3d
       -0.024965106 0.08036202 -0.0765416 0.08365874
000270 61 ce 86 bd a4 de ae 3d a0 d3 7f 3d 88 eb 0f 3e
       -0.065823324 0.08538559 0.06245768 0.14054692
000280 c5 3a 88 3d d0 09 0f be 06 21 59 bd b0 97 25 3d
       0.066518344 -0.13968587 -0.05301001 0.040427864
000290 99 59 a9 bd 82 22 77 bd 15 af 07 3d 1a cc 67 bd
       -0.082690425 -0.060335644 0.033125956 -0.05659113
0002a0 b1 2a c8 bd f5 bf 2f 3e 49 d7 53 bd 7f a5 36 bd
       -0.09773768 0.1716307 -0.051718984 -0.044591423
0002b0 9c c2 d5 3c ac 17 7b bc 18 04 39 3e 15 31 c4 bd
       0.026093774 -0.015325468 0.18067968 -0.09579674
0002c0 dc d0 2e 3e ac 19 4c bd 9a 64 da bd f5 84 84 bd
       0.17071861 -0.04982917 -0.106637195 -0.06470672
0002d0 d1 ec b1 bd 77 ba e1 3d 44 36 eb ba 2b a0 8a bd
       -0.08687747 0.110218935 -0.001794525 -0.06768831
0002e0 66 c5 32 3c 7d c6 c4 3d db e4 87 bd cf d1 e9 bd
       0.010911321 0.09608171 -0.066354476 -0.11416971
0002f0 f8 a7 41 bc 23 be 86 3b 88 82 a9 3d 1b d3 9b 39
       -0.011819832 0.0041120215 0.0827685 0.0002972119
000300 17 3d 91 3d 30 b1 9f 3d 9b 9b 17 3c bd 4b 4a bd
       0.0709173 0.07797468 0.009253408 -0.049388636
000310 b8 2d e9 bd 73 3f 8a 3c e3 f8 98 3d 3d 81 22 bc
       -0.11385673 0.016875958 0.074693464 -0.009918508
000320 a3 76 a0 3d 23 0a a4 bd 2c 38 c9 bb 73 85 90 3d
       0.07835128 -0.08009746 -0.0061407294 0.070567034
000330 87 70 6c 3d 3d 29 90 3d 4f e4 76 3b fe 4c a9 bb
       0.057724502 0.070391156 0.0037672704 -0.005166649
000340 c8 21 01 bd e8 79 b7 bd c4 09 83 bd 88 b1 1a 3e
       -0.031526357 -0.08958799 -0.06398347 0.15106785
000350 cc 54 ae 3c bc 30 a9 3d 96 21 80 3b 49 d3 d3 bc
       0.021280669 0.082612485 0.0039102538 -0.025857585
000360 de 2f f8 bc f2 b7 3d bd 91 68 b7 bd 75 36 47 3e
       -0.030296262 -0.046318002 -0.08955491 0.19454367
000370 05 ff 27 3e fc 92 c7 3d 97 e7 b8 3d 7c 5a a7 3b
       0.16405876 0.09744832 0.09028547 0.005107222
000380 64 73 c9 bd 1e 81 1b be 15 24 e2 3d 23 09 77 3c
       -0.09836462 -0.15185973 0.11042038 0.015077862
000390 96 11 84 be 6d 16 bf 3d ff b3 ae 3d af 7b df 3d
       -0.25794667 0.09330449 0.08530425 0.10912263
0003a0 dc b3 29 3e 9c 9c 3d bd 81 02 d7 bc 49 e7 bf bc
       0.16572517 -0.046291932 -0.026246311 -0.023425715
0003b0 59 5d 49 bc 20 c7 c8 3d 86 34 e2 3c 0b 5f b0 bd
       -0.012290322 0.09803605 0.027612936 -0.08611878
0003c0 85 a8 c2 3d d0 2f 6a 3c 14 b6 88 bd 5a a0 36 3e
       0.09504799 0.014293626 -0.06675354 0.17834607
0003d0 6c 88 e4 3d b8 d1 b4 3d 11 6d 47 bd 41 bd 06 bd
       0.11158833 0.08829063 -0.048688 -0.03289533
0003e0 35 19 05 be 75 e7 22 3e d0 87 14 3e 56 65 80 bc
       -0.12997897 0.15908606 0.14504933 -0.01567332
0003f0 56 6e 9e bd 96 8b 77 be 4d 42 96 3d 1a 6c 87 ba
       -0.07735889 -0.24174342 0.073368646 -0.0010331899

network_body.linear_encoder.seq_layers.0.bias f4 [128]
000000 cb c4 9f 3d 43 3e a1 bc 35 82 08 3d 3c f7 f1 3c
       0.07801207 -0.019683009 0.0333273 0.029536836
000010 cc 24 b7 ba 7c 5f b5 3d 97 7b c2 3b a4 48 3e bd
       -0.0013972758 0.08856103 0.005935143 -0.046455994
000020 06 8a 84 3d dd 86 32 3d 78 e5 06 3d 3f c8 26 3d
       0.064716384 0.043585647 0.032933682 0.040718313
000030 79 1b fb 3c 33 28 a3 bd 32 75 34 3d d7 2e 2f 3d
       0.030652748 -0.07966652 0.04405708 0.04276928
000040 2f 32 c9 bc ed 32 4c 3d 90 2f f9 3a 7a 00 f7 bc
       -0.024560062 0.049853254 0.0019011367 -0.030151594
000050 ea e4 f5 bc 3b 20 63 3b 7b f6 a0 3b 9d 07 32 3d
       -0.030016381 0.0034656662 0.0049121953 0.04346429
000060 20 30 1e 3d 29 e8 54 3c 06 d5 26 3c 69 2e e8 3c
       0.038620114 0.012994804 0.010182625 0.028342443
000070 11 7b d0 3d 5c fc 7a 3d 47 e6 70 3c 75 89 8f bc
       0.10179723 0.061275825 0.01470334 -0.0175216
000080 ec e6 68 bc d1 ae e7 ba 9d 5e 86 3c 77 76 a9 bc
       -0.014215212 -0.0017676001 0.016402537 -0.020686371
000090 88 85 45 bd 92 9a 04 3d fc b3 b9 bb da 5d 12 3d
       -0.04822305 0.032373972 -0.0056672078 0.035734035
0000a0 ce 29 f8 ba 41 2c 03 39 c0 19 84 3d 27 8b 74 3d
       -0.0018933357 0.0001250962 0.06450224 0.05970302
0000b0 02 fc 11 3d 6d 65 9f 3d 86 90 3d 3b 8c f4 de 3c
       0.035640724 0.07783017 0.0028925254 0.027216218
0000c0 28 08 da 3b 84 8d 5e ba 5c f9 39 3c d9 ea 11 3d
       0.0066538043 -0.00084897154 0.011350956 0.03562436
0000d0 9e a8 8f 3b 55 f0 8e 3d 99 ea c2 3c bd 02 94 3c
       0.0043841144 0.069794334 0.023793506 0.018067712
0000e0 af 1e e2 3b ca 6a 66 bd 6f a9 d7 3c c0 79 1a 3d
       0.0069006304 -0.056254186 0.02632591 0.037713766
0000f0 d3 1d 3e bc 03 ae 94 3d 4f 07 bc bc 96 08 56 bc
       -0.01160379 0.072597526 -0.022952704 -0.0130635705
000100 69 10 3a bc 7b 61 75 3d d5 24 89 ba 92 c9 d5 bc
       -0.011356452 0.059907418 -0.0010463247 -0.026097093
000110 69 68 38 3d e1 24 fa 3c b9 28 76 3c d4 6e fc bc
       0.04502145 0.030535163 0.0150243575 -0.030814566
000120 c6 02 f8 3c 25 ed b6 bb fc 43 92 3c c5 31 e2 bc
       0.03027476 -0.005582469 0.017854683 -0.027611623
000130 a0 01 a3 bc bb 27 dc bc 28 05 bb bb 44 db 98 3c
       -0.019898236 -0.026874414 -0.005707402 0.018659241
000140 27 94 fd bc b4 cf de 3b 70 f0 02 bd 4c e2 90 3d
       -0.030954434 0.0067996625 -0.03196758 0.07074413
000150 a6 79 ca bc 94 d0 26 bc c0 6a 95 3d 04 ca d4 ba
       -0.02471621 -0.010181565 0.072957516 -0.0016234522
000160 72 a6 1e bc e5 1d 42 3c 36 69 a2 3c 51 85 07 3d
       -0.009683238 0.011847948 0.01982556 0.033086125
000170 da bb 6a 3b 1b 84 b0 bc 21 2e bb 3c da dc a0 39
       0.0035817535 -0.021547368 0.022849144 0.00030682125
000180 b8 62 06 3d e7 a9 8c bc 8b 20 0b bd 7f 47 6c bc
       0.03280899 -0.01717086 -0.033966582 -0.014421343
000190 90 08 35 3d 21 84 74 3c 1f fb bf 3c 4e 96 0a 3d
       0.04419762 0.01492408 0.023435174 0.033834748
0001a0 33 56 77 3c 3f b8 ac 3d 09 dd 9a bc 6b ea 8c 3d
       0.015096235 0.0843358 -0.018904226 0.06880649
0001b0 b4 46 2c bc d6 ce 0f 3d 95 b6 80 bc bf 74 d6 3c
       -0.010514904 0.035109363 -0.015712062 0.026178716
0001c0 a8 78 99 bb 49 a7 79 3b 74 aa a7 3c ca 4c 87 bc
       -0.004683573 0.0038094094 0.02046702 -0.016516108
0001d0 ce 0f f4 3d af 07 e2 3c 7c 97 90 3d 11 9b ff 3b
       0.11917077 0.027591554 0.07060143 0.007800468
0001e0 89 8c 3d 3c 54 d6 df 3c c8 bd 1c 3d 7f a8 8e bc
       0.011569151 0.02732388 0.038266927 -0.01741433
0001f0 4e d3 1b 3d 4c 09 ff 3a d9 0f 6e 3d 19 35 ac bc
       0.038043313 0.0019457727 0.058120582 -0.021021413

network_body.linear_encoder.seq_layers.0.weight f4 [128, 42]
000000 c7 de 25 3d c0 2f 41 be 7f 2b 1b 3e 35 f4 4a 3e
       0.04049566 -0.18865871 0.15153311 0.1981972
000010 36 4c 85 bd 10 35 82 be 67 01 b3 3e 9c 70 4f 3e
       -0.06508677 -0.25431108 0.34962007 0.20257801
000020 c7 31 a8 3c b5 d0 12 3d 22 da db 3e 16 93 aa 3e
       0.020531548 0.03584357 0.4293986 0.33315343
000030 8d a6 7e 3b 70 95 fa bd a3 66 fe 3d 88 39 46 3d
       0.0038856596 -0.12235534 0.1242192 0.04839471
000040 bd 1b 28 be 26 fd 25 3e ea fd e6 be fb ca 38 bc
       -0.16416831 0.1620985 -0.45115596 -0.011278863
000050 c9 7e f8 bd 13 a6 ca 3d 65 2c d4 3d ad 6c 22 3e
       -0.12133557 0.098949574 0.1036003 0.15861769
000060 a4 b3 fc 3d 2b 80 b6 bd ca 88 3d 3d cf 21 46 3e
       0.12338951 -0.08911165 0.04627303 0.19348834
000070 5c 2f 7a 3e b6 df 16 be b4 07 55 3d 7e 77 02 3d
       0.24432129 -0.14733776 0.0520093 0.031852238
000080 32 17 b5 bc d8 7b 05 3e f6 6c e2 bd 1c 81 f2 3e
       -0.022105787 0.13035524 -0.11055939 0.47364128
000090 83 c8 06 3d e8 16 0a 3d 30 f9 6d be 2f bb 2e 3e
       0.032906067 0.03371325 -0.23239589 0.17063592
0000a0 60 91 7a 3e 89 44 3f 3e 85 f2 7e 3e 1c 32 92 3e
       0.24469519 0.18678488 0.24897201 0.28553855
0000b0 56 2a ee 3d 8f fb 89 bd 7b 6e 96 be f8 28 25 3e
       0.11629169 -0.06737434 -0.29381165 0.1612891
0000c0 61 bf 00 3b 7e 4c 38 bc 66 f9 73 bc 82 6f 84 3b
       0.001964532 -0.011248706 -0.014891004 0.004041613
0000d0 03 4e d9 bd 6f 2d 93 bd cd ed 6d 3e a5 bd 1e be
       -0.10610583 -0.071864 0.23235245 -0.15502031
0000e0 e8 7c 29 be 36 f6 f8 3d 72 24 8b 3e d5 e9 ca 3d
       -0.16551554 0.12156336 0.27176243 0.09907881
0000f0 56 62 7b be bd 56 cc 3d 61 06 53 3d 3b 3a 57 bd
       -0.24549231 0.099774815 0.051519755 -0.052545767
000100 79 19 a7 3d 07 7b a7 3e 89 0c 21 be 88 d9 68 be
       0.081591554 0.3271105 -0.15727438 -0.22739232
000110 19 55 3d be df bd 37 be 05 59 4e 3e f3 ec 4e be
       -0.18489493 -0.17943524 0.20151146 -0.20207576
000120 82 f5 93 3d 8c a7 66 3d 02 6b 0a be 18 5c 48 3d
       0.07224561 0.05631213 -0.13517383 0.048915952
000130 34 26 ed 3c 37 27 6d be aa a1 22 3e f2 97 c0 bd
       0.02894888 -0.2315949 0.15881982 -0.09403981
000140 0b d8 8d 3d 9d f6 15 bc 4c 0d 7c be 94 e2 f9 bd
       0.069259726 -0.0091530355 -0.24614447 -0.122014195
000150 d1 09 0b be 51 14 16 bd d4 55 2b bd 64 b9 b0 3e
       -0.13577963 -0.03664047 -0.0418299 0.34516442
000160 5a 90 89 3d 67 23 09 3e 03 37 8a bd 0b 0c 98 3e
       0.06716986 0.13392411 -0.06748774 0.29696688
000170 3b 4b 5f bd c9 42 c5 bd ef df 2a be 19 65 3d 3b
       -0.054515105 -0.09631879 -0.16686986 0.002889937
000180 56 98 dc be d6 0d 99 bd 3b 8d 79 3d 46 33 8a be
       -0.43084973 -0.07473342 0.060925703 -0.26992244
000190 0b f3 be ba 01 a2 06 3c 35 ca 59 be 43 7e 92 3e
       -0.0014568282 0.008217336 -0.21268542 0.28611955
0001a0 67 98 be 3d cc 71 a4 bd 30 fb 14 be b7 db 33 be
       0.09306412 -0.080295175 -0.14548945 -0.17564283
0001b0 68 8f 26 3e ab 07 d7 3a f0 5b e0 bc 79 2b 36 3e
       0.16265643 0.0016405483 -0.02738759 0.17790021
0001c0 d5 55 62 be ff e3 c0 bd 24 b6 b9 3e 1b 0f 03 be
       -0.22103055 -0.09418487 0.36271775 -0.12798731
0001d0 68 44 14 3e 07 12 d9 bc e8 a5 3a bd 98 be 38 bd
       0.1447922 -0.026497854 -0.045568377 -0.04510364
0001e0 61 b6 d9 3e 0f 21 4f bc b0 d4 81 be dd 91 73 3b
       0.42521957 -0.012642159 -0.2535758 0.0037165799
0001f0 4d 90 52 be 1c 2f ce 3e 31 e8 34 3d d9 0e 24 be
       -0.20562859 0.40270317 0.044166747 -0.16021289
000200 f6 98 9f 3e 2e 9c 98 3e 8d f0 9b 3d 5f ef c5 3c
       0.31171387 0.29806656 0.07614241 0.024161993
000210 b8 1f 10 be a6 8f 31 3e 97 fa a5 3d 8e 77 66 bc
       -0.140746 0.17339954 0.08104437 -0.01406659
000220 1c 2b 55 3d 18 24 3c 3e 8d a0 10 3d cd 0f 93 3d
       0.052043065 0.18373144 0.035309363 0.07180748
000230 59 bb 0c be 90 7f a1 3e d4 e2 d4 bd a0 81 7d be
       -0.13743342 0.31542635 -0.103948265 -0.2475648
000240 00 21 7f 3e 72 15 44 bc dd d4 2b be 57 5b 2c 3e
       0.24914932 -0.011968004 -0.1678042 0.16831718
000250 af 89 a9 be ef bd 83 bd 1e e6 38 be a1 6f 36 3e
       -0.33112857 -0.06432711 -0.18056533 0.1781602
000260 49 5a 58 3e 36 b2 4e 3e 07 63 29 3e 1a 4e 08 be
       0.21128191 0.2018517 0.16541682 -0.13311043
000270 75 bf 54 3d 77 6b e0 3e 9e 51 42 3e 54 af 2f 3e
       0.0519404 0.4383199 0.18976447 0.17156726
000280 af 4d 19 3e ba 0b 64 3e 2c 99 f7 bd a5 6a 16 bd
       0.1497104 0.22270098 -0.12089762 -0.036722798
000290 49 1f 84 3e 92 a3 2b 3c f2 68 bc 3b 71 20 06 3f
       0.2580512 0.01047601 0.005749815 0.5239325
0002a0 82 d3 da bd 5f c6 24 3e ce aa c6 bd 52 33 15 bd
       -0.10684873 0.16091298 -0.09700547 -0.036425896
0002b0 9c 3c 0c 3e dc 51 3a 3d a0 d2 a2 bd 52 41 13 be
       0.13694996 0.045488223 -0.0795033 -0.14380386
0002c0 60 b7 ef 3c e8 94 be 3e 94 fa 0b 3e 63 49 91 bd
       0.029262245 0.3722298 0.13669807 -0.070940755
0002d0 d5 c0 4d 3e f5 b9 65 be 6b 5d ed bd 57 db 8e bd
       0.20093091 -0.22434218 -0.11590084 -0.069754295
0002e0 10 8f 65 3e de 6c 4d 3d 9c e8 d5 3c 6e 42 8f 3c
       0.22417855 0.050152652 0.026111893 0.01748773
0002f0 fe dc c7 3e ce 14 57 bd 85 d1 a4 bd 37 03 32 3d
       0.3903579 -0.052510075 -0.08047775 0.043460097
000300 0e e7 72 bb 92 7e df 3e 38 8f 48 3d 98 6c d7 bc
       -0.003706399 0.43651253 0.04896471 -0.026296899
000310 6a 54 e6 3d 72 21 3f be 80 35 19 bf 06 9b 03 bd
       0.112465695 -0.18665102 -0.5984726 -0.032130264
000320 07 2e 53 be 14 37 b3 bc 58 f8 74 3e d3 19 07 be
       -0.20623027 -0.02187685 0.2392286 -0.13193445
000330 35 3a 93 be 62 5e 0c be 1e 95 9c 3d 06 84 d6 bd
       -0.28755346 -0.13707879 0.07645629 -0.104744
000340 bb 06 bc bd b6 cf 3f be 11 7c b8 be 97 b3 85 3e
       -0.09180971 -0.18731579 -0.36032155 0.2611358
000350 c7 28 d1 bb 22 ee 91 3d 37 ab 5e 3d fc bd 4b bd
       -0.006383035 0.07125498 0.054362502 -0.04974173
000360 04 04 80 3d ba 9d b7 bc d2 2a 85 3e 00 c7 cb bd
       0.06250766 -0.022414077 0.26009232 -0.099500656
000370 46 5e 68 be c2 26 b9 bd 62 81 db 3d 54 02 b5 bd
       -0.22692212 -0.090405956 0.10718037 -0.08838335
000380 de 39 88 3e a5 81 f9 3d 97 77 32 be da be f6 3c
       0.2660665 0.12182931 -0.17428432 0.030120302
000390 a1 17 a7 bd 99 8d 1d be 8d a7 2e be e2 db db 3b
       -0.08158804 -0.15386046 -0.17056103 0.0067095617
0003a0 04 a4 81 bd ae 7a a7 3e 2c 8c 59 be 35 c0 3f 3d
       -0.063301116 0.32710785 -0.21244878 0.046814162
0003b0 65 07 3b bd cd d1 0b 3e 21 07 88 3e ec 4b 17 be
       -0.04566135 0.13654251 0.2656794 -0.14775056
0003c0 90 10 69 3e 29 f6 4f 3e 4c 49 eb 3c 3a e3 18 3e
       0.22760224 0.20308746 0.028721474 0.1493043
0003d0 4a 39 84 bd 33 76 cf bd fa 71 36 3e 46 58 9a bb
       -0.064562395 -0.101299666 0.17816916 -0.00471023
0003e0 79 48 b1 be 8b 0f b5 3b 47 c2 bf bd 4f fc db 3d
       -0.34625605 0.0055255345 -0.09363227 0.107414834
0003f0 de e0 29 3e 9c fd 85 bd aa 53 82 be 1d e0 1d bd
       0.16589686 -0.06542513 -0.25454456 -0.03854381

network_body.linear_encoder.seq_layers.2.bias f4 [128]
000000 80 e0 aa 3c 68 06 ce 3b 66 9d ca bc 35 42 17 bd
       0.020859003 0.006287385 -0.024733257 -0.036928374
000010 36 c5 d0 3c 0a ce 0c 3c 43 63 ae 3b 0c a1 31 3d
       0.025484663 0.008594045 0.0053218915 0.043366477
000020 fc f3 72 3c 9e 65 88 bc 7d 97 8e 3c fc 85 63 bc
       0.014828678 -0.016650017 0.01740622 -0.013886925
000030 9f 0d 2d bc a9 25 c5 bc 82 a5 58 3b 55 20 ef 3a
       -0.01056233 -0.02406581 0.0033057635 0.0018243889
000040 b9 b8 80 bc 2c 1c be 3c 53 58 61 3c 3b 6b a4 3c
       -0.015713083 0.023206793 0.013753968 0.020070663
000050 4b b2 1e bd f0 c4 ef 3c 68 ca 57 3c ad e9 8b 3c
       -0.038744252 0.029268712 0.013170816 0.017079199
000060 33 52 18 3d 22 f3 08 bc 1b 92 08 3d 82 34 85 bc
       0.037187766 -0.008358749 0.033342462 -0.01626039
000070 73 c4 51 3c 33 14 d9 bc 1f 8b 0c bd 71 f6 8c bc
       0.012803185 -0.02649889 -0.034312364 -0.017207356
000080 9e 01 ce bc 92 c5 9b bc b2 d4 d6 3c 0e a5 03 bc
       -0.025147256 -0.019015107 0.026224468 -0.008034958
000090 9e bd fa 3c 88 8b 63 3d 2e ed 62 bc bf c3 25 3d
       0.030607995 0.05555299 -0.013850493 0.04046988
0000a0 8a 6d 66 3d 85 2a 84 bc 4f 41 95 3c 8e 91 b7 3c
       0.05625681 -0.016133556 0.018219618 0.022408273
0000b0 39 8e 18 bd c0 02 e1 3c 08 40 8b bc 84 eb 74 3d
       -0.03724501 0.027467132 -0.016998306 0.059794918
0000c0 0a 81 63 bc 2c a0 fb 3c 56 c8 88 3d 4e b4 06 3d
       -0.013885746 0.030716024 0.06678836 0.032886796
0000d0 a3 8e e4 3c fa e1 16 bc d7 4b cb 3c 18 f3 a5 3b
       0.027900046 -0.00920915 0.024816437 0.0050643794
0000e0 45 8b 9b 3c 7f d2 63 bc 83 97 0f ba 38 c5 ea 3c
       0.018987307 -0.013905167 -0.0005477594 0.028658494
0000f0 98 be ef 3c 1c 81 d3 3b bf 3f 7a 3b 7f 17 af 3c
       0.029265687 0.0064546 0.0038184968 0.021373508
000100 b9 f7 39 bd 1a 81 07 bb 1d f4 7a 3c 52 00 23 3d
       -0.045402262 -0.0020676316 0.01531699 0.039795227
000110 7b 93 0c 3d 36 3a e9 bb 4f ae 99 bc 9d a2 84 bc
       0.034320336 -0.007117535 -0.018759875 -0.016190821
000120 62 68 aa bc f9 c7 b0 bc d3 e6 a8 3c 5f ca 06 bc
       -0.020801727 -0.02157973 0.020617878 -0.00822696
000130 4e 45 02 bd 9c db 31 ba 35 77 4e bb 6d 09 e4 3c
       -0.031804375 -0.00067847385 -0.0031504158 0.027836526
000140 84 3e e3 bc 15 6f d2 3c a6 f1 6f bc 11 31 be bc
       -0.02773977 0.025687734 -0.014645016 -0.023216756
000150 ca 52 03 3d 73 a4 8d bc 59 4a 9b 3c 07 19 e8 3c
       0.032061376 -0.01729033 0.01895635 0.028332246
000160 28 6d d0 3c e7 f1 fe 3c d0 ec 5c 3d b3 c4 37 3c
       0.025442675 0.031121207 0.05393678 0.01121633
000170 d0 af 7b 3c 02 9d f6 bc ea 03 2f bc 71 e5 b0 3c
       0.015361741 -0.030104164 -0.0106820855 0.021593781
000180 b5 e1 22 3d 3b 60 14 3d 5a ea 97 3a 44 ed 1e 3c
       0.039766032 0.036224585 0.0011590228 0.009700123
000190 2e f4 c1 3c c4 7d 6b bc 34 5f e3 bc 59 fc 34 3c
       0.023676004 -0.014373247 -0.027755357 0.0110464925
0001a0 b2 80 c0 3b d8 76 0f bc c3 59 b4 3c a4 83 46 3a
       0.0058747167 -0.008756362 0.022015458 0.00075727166
0001b0 af 26 ac 3c 31 5e 93 3c aa 7c f8 ba 51 93 85 bb
       0.02101454 0.01798925 -0.0018958051 -0.0040763994
0001c0 18 c5 07 bc 9b bc 23 bd 19 fc e6 3a fb d4 02 bc
       -0.008286737 -0.03997479 0.0017622738 -0.007985349
0001d0 e1 4a 19 bd de 40 8d bc 3e fe ae 3b be 0e 51 3d
       -0.037424926 -0.017242845 0.0053403666 0.05103945
0001e0 b0 6a 6f 3d 72 b0 38 3c 3a 81 ca bb d2 58 49 bc
       0.058451355 0.011272537 -0.006179956 -0.012289243
0001f0 d4 b4 13 3d 70 b6 16 3d ba 10 b5 bc 9c 78 e8 bc
       0.036061123 0.03679508 -0.022102702 -0.028377824

network_body.linear_encoder.seq_layers.2.weight f4 [128, 128]
000000 99 99 1e be bb fb 12 bd a6 e9 52 bd 93 a1 93 ba
       -0.1548828 -0.0358846 -0.051492356 -0.0011263363
000010 3c 5b 79 3e ac af dc bd 3c 90 0d 3d 6b 3e 48 be
       0.2435121 -0.10775694 0.03456138 -0.1955506
000020 6c 40 12 3e 46 d7 35 be 27 43 db bc fb f0 81 bd
       0.14282387 -0.17757902 -0.02676542 -0.063447915
000030 a9 b0 a9 3d 31 8f 09 be 5b 17 44 be 9f 4e 39 be
       0.082856484 -0.1343353 -0.19149534 -0.18096398
000040 a9 e3 b2 3d 08 85 34 3e 4a 97 2e 3d 4a cd ab bd
       0.08734829 0.17628872 0.04262475 -0.08388765
000050 c1 fe d2 3d 5f 7a ea 3d ee 44 77 bc 87 42 af bd
       0.10302497 0.11449122 -0.015092118 -0.08557611
000060 c2 ec 0a be 0c 67 b3 3d 25 76 de ba 63 24 ae 3d
       -0.13566878 0.08759889 -0.0016972466 0.08503034
000070 53 20 23 bd ae e9 8c 3c 1f c2 88 3d 06 0b 99 3d
       -0.03982575 0.01720127 0.06677651 0.07472806
000080 0a 87 64 bd 21 51 0d bd be 57 05 3e 00 67 1c 3c
       -0.055792846 -0.0345012 0.13021752 0.0095460415
000090 3a d7 01 3e 10 eb e8 3a 9a 71 b5 bd fc 8f 14 be
       0.12679759 0.0017770249 -0.088595584 -0.1450805
0000a0 b2 44 6d be 0b b6 db bd 3e a7 bf 3e fc b5 f1 bd
       -0.23170736 -0.10728081 0.37432283 -0.11802289
0000b0 21 d3 b5 3d e7 26 2c 3e 6e ea f4 3d 9d c2 21 3e
       0.0887816 0.16811715 0.119587764 0.15796895
0000c0 b1 70 c3 bb db 31 6d be 41 71 ce 3d 6f dd 66 be
       -0.0059643616 -0.2316355 0.10080195 -0.22545408
0000d0 64 1a e5 3d 31 8a 75 be 92 11 a7 3d 99 72 ca 3a
       0.11186674 -0.23978497 0.08157648 0.001544553
0000e0 a6 d4 f6 bd 70 dc b4 bb e8 8b 0b 3e 40 8f 17 3d
       -0.12052278 -0.0055194423 0.13627589 0.03700185
0000f0 27 99 ab bd 19 b5 9b 3d 71 55 06 bd e8 7f 7c be
       -0.08378821 0.07602901 -0.032796327 -0.24658167
000100 4c e6 22 bd 9f aa a9 3e 56 5a f9 3d 26 9b 39 bd
       -0.03977041 0.33137986 0.12175433 -0.045313977
000110 2e 98 3f be 97 91 ae bc 74 9d c9 3d b7 ea 8e 3d
       -0.18710396 -0.021309657 0.09844485 0.06978362
000120 6c bf c9 bb a7 c2 d8 bc f7 ec 50 bd 6f a7 67 3c
       -0.0061568525 -0.026460005 -0.051007237 0.01413904
000130 06 a3 5f 3d fd 8c 27 bd 61 8b 75 3e 4e 65 cf 3d
       0.05459883 -0.04090594 0.2397895 0.10126744
000140 a2 22 a4 3c 46 07 80 3e 97 2b 9c bd ce b0 1e be
       0.020036045 0.2500555 -0.076255016 -0.15497133
000150 b3 8f 0a be 2d 75 51 3d 6e 17 99 bd e8 ec 30 3c
       -0.1353138 0.05113714 -0.07475172 0.01079867
000160 82 15 2b 3c b2 27 f0 bc c5 3a 54 3d c2 ba 5e bd
       0.01044214 -0.029315803 0.05181386 -0.054377325
000170 eb 67 06 bd a2 3a 69 bc be dd 6e 3a 5d c9 10 3e
       -0.032813948 -0.014235171 0.00091120217 0.14139314
000180 47 28 d0 3d 72 c8 47 be 5b f8 23 3e 31 a6 95 bd
       0.10163932 -0.19510058 0.16012709 -0.07307089
000190 7d 22 29 3d c8 97 56 bd e1 00 b2 bd 69 a3 f8 3d
       0.041292656 -0.052390844 -0.08691574 0.12140543
0001a0 62 98 cb 3d 5f 68 06 3d af ec ca bc cf ef 80 be
       0.09941174 0.03281438 -0.024771063 -0.2518296
0001b0 b5 97 fd bd 0a f5 84 3d 5f 4a cf bd 4f 1e 8f be
       -0.123824514 0.0649205 -0.10121607 -0.2795281
0001c0 d6 75 3c 3d 20 4f de bb bf 10 80 3c a8 21 7c 39
       0.046010815 -0.006784335 0.015632985 0.0002404513
0001d0 d2 41 29 bd 0e 51 8b bd c9 86 4d be 74 9e fd bd
       -0.041322537 -0.06802569 -0.20070948 -0.12383738
0001e0 aa dd 37 bd 12 a7 d6 3c 4f 6c 03 be 6f f5 10 3e
       -0.04488913 0.026202712 -0.12834285 0.14156125
0001f0 93 e3 7d bd bb 40 00 3e 0b e2 fd bd bd 11 db bc
       -0.06198461 0.12524693 -0.1239663 -0.026741857
000200 11 20 88 be 86 32 63 3e 4b 48 60 3e c2 42 be 3c
       -0.26586965 0.22187242 0.21902578 0.023225192
000210 8a 06 b6 3d 36 6d 85 bd 15 50 15 be d3 15 5a be
       0.08887966 -0.06514971 -0.1458133 -0.21297388
000220 ce 8a 59 3e eb 4b 06 3e 3c 04 01 be 74 91 0f be
       0.21244356 0.13114898 -0.12599272 -0.1402033
000230 12 44 ca 3d 33 b3 53 bd 26 88 71 be 5b 4a 7b bd
       0.09876265 -0.05168457 -0.23587093 -0.061350208
000240 c4 ee e5 bc 16 2a 2d 3e 89 8e 04 3e 73 0c 10 bd
       -0.028067954 0.16910586 0.12944998 -0.035168123
000250 00 1b 14 3d f5 fe af 3e fb f2 c7 bc ed d7 ad be
       0.03615856 0.34374204 -0.024407854 -0.339538
000260 b4 45 97 bd 1e 34 01 bd 1f 5b 59 3e 0e 8d 21 3e
       -0.07386342 -0.031543843 0.21226166 0.15776464
000270 de 73 15 be a6 9b ef bd f8 53 82 bd e3 21 2d 3e
       -0.14594981 -0.116996095 -0.06363672 0.16907458
000280 bb a1 63 3c de b9 f1 bc 32 b2 41 be 95 48 91 3e
       0.01389354 -0.029507574 -0.18915632 0.28375688
000290 16 d1 4e 3d 5d 2b 36 3d 32 0f 8e be e5 c5 03 be
       0.05049237 0.04447495 -0.27745968 -0.1286846
0002a0 a1 69 b3 bd ee 2a 0c 3e 93 2d 3a 3e 91 d6 b5 b9
       -0.087603815 0.13688251 0.18181448 -0.00034682875
0002b0 ad 1e 2f 3e 53 37 31 3e 2f 13 70 bc 2c ee 65 3d
       0.17101546 0.17306261 -0.014653011 0.05613534
0002c0 e5 d3 57 bc da b4 59 bd 70 01 d5 3d b6 5c 35 be
       -0.013173078 -0.05315099 0.10400665 -0.17711148
0002d0 0e 0a 7d bb d5 cc e9 bd 9f 1c 97 3e d6 83 e0 3d
       -0.003861073 -0.11416022 0.29514024 0.10962646
0002e0 14 ee ce 3c 11 85 7c bd 36 d3 cd 3d af 8e a9 3d
       0.025260009 -0.06165034 0.10050051 0.08279168
0002f0 84 01 b3 3c 3c d2 c0 bd 6f c2 ae 3d f5 5b bc be
       0.021851309 -0.09415099 0.08533179 -0.36788908
000300 f5 f8 9a 3d 73 f0 3e 3e 82 b4 09 3e c8 6e 37 be
       0.07567016 0.18646412 0.13447765 -0.17913353
000310 71 0e 25 3d 53 e7 03 bc 0a 5e a2 3d 25 ad 9d bd
       0.040296976 -0.008050757 0.07928093 -0.0769904
000320 b3 e8 5f be 0e 91 52 3d fd 05 c2 bc a8 ee 5a 3e
       -0.21866111 0.051407866 -0.023684496 0.21380103
000330 55 95 b6 3d 32 37 46 bd e0 e6 b1 3b f2 65 af bd
       0.089152016 -0.048392482 0.005429134 -0.085643664
000340 cf 3f af 3d 08 c9 1e 3e 2b 82 cc 3d 90 13 6e be
       0.085570924 0.15506375 0.09985765 -0.2324965
000350 e2 78 ff 3c 29 73 83 bd e8 2f ac bd 5f a1 fb bc
       0.031185571 -0.064184494 -0.08407575 -0.030716596
000360 72 c6 e8 bb f2 cf 63 be 4e d2 8c 3d 52 11 41 3e
       -0.0071037346 -0.22247294 0.0687605 0.18854263
000370 87 e4 45 3e 78 34 30 bd 8a 36 09 3e 37 5c 74 3d
       0.19325458 -0.043018788 0.13399711 0.059658255
000380 38 2f 1b 3e 51 56 08 bc 42 6e 05 3c 21 bc 15 3d
       0.15154731 -0.008321361 0.008143963 0.036556367
000390 29 ff dc 3d fd 80 c2 3c 23 be 69 bd bc 46 59 3d
       0.107908554 0.023743147 -0.057066094 0.053045973
0003a0 81 9d 64 bd 78 64 73 bd 16 1c 87 3d 33 f3 29 be
       -0.05581427 -0.059421986 0.06597154 -0.1659668
0003b0 71 31 94 bd c3 f2 c3 bd 58 e0 a9 be 32 4f 48 be
       -0.07235993 -0.095677875 -0.33178973 -0.1956146
0003c0 d9 d2 e1 bb 40 79 ed 3b 98 28 f0 3d a0 57 0f bd
       -0.00689159 0.00724712 0.11726493 -0.034995675
0003d0 d9 d9 eb 3c 2c 47 5d be 74 08 5c bd 29 fb 61 3d
       0.028790401 -0.21609181 -0.053719 0.055171166
0003e0 52 17 8e 3d 10 46 36 bc ca 00 2f be c5 6a e3 3d
       0.06938042 -0.011125103 -0.17090145 0.11104349
0003f0 b3 4b ba 3c 05 ba 95 3e ce 97 81 be 43 b1 2d bd
       0.022741174 0.29243484 -0.2531113 -0.042405378
