MLAgentsFB/Assets/MLAgents_FlappyBird/FlappyBird_2.onnx (onnx, 91137 bytes, 6 tensors)

distribution.branches.0.bias f4 [2]
000000 7a b7 a3 3c 7a b7 a3 bc
       0.01998495 -0.01998495

distribution.branches.0.weight f4 [2, 128]
000000 78 56 5b 3d 8b 4e 6e 3d 77 88 85 bd 7d 2a 2e 3d
       0.05354926 0.058180373 -0.06520169 0.04252099
000010 f2 28 6b 3d be df 32 3d 42 4e 03 bc 84 6b 59 3d
       0.057412095 0.04367041 -0.008014264 0.05308105
000020 9d f8 54 3d 67 24 a3 3d ad 97 70 3d 97 67 86 bc
       0.05199491 0.079659276 0.0587384 -0.016406817
000030 b8 1e ff bc 1b eb 38 bd 00 38 e2 3d 1f 85 ce 3d
       -0.031142578 -0.04514609 0.110458374 0.100839846
000040 4a 73 9d bd 1f 60 81 3d 96 b0 4e 3d ce ad 76 3d
       -0.07688005 0.06317162 0.050461374 0.060224347
000050 d9 fe d1 3b 93 5f 00 3e f3 74 81 3d 3e 1b 4c 3d
       0.006408554 0.12536459 0.063211344 0.049830668
000060 ae 34 85 3d 4c 34 ff 3a ee 7b 49 3d 73 3c 80 bd
       0.065041885 0.0019470542 0.049190454 -0.0626153
000070 77 3c b6 3d 93 11 80 bc e7 96 5d bc 71 84 cb bc
       0.088982515 -0.01563338 -0.013524747 -0.024843426
000080 8e 3c 51 bd 87 12 8f 3d 05 ad 07 3c 26 31 4d bd
       -0.05108314 0.06985956 0.008280997 -0.0500957
000090 83 70 4a 3d ba f9 1d 3d 30 42 0c bc e5 e8 70 3d
       0.049423706 0.038568236 -0.008560702 0.058815856
0000a0 ed 26 51 3d aa c8 19 bd cb 98 49 3c 4c c5 53 3d
       0.051062513 -0.037544884 0.012304495 0.05170183
0000b0 28 19 2d 3c f4 fc a2 3d 3d 58 01 bd 0b 66 77 3d
       0.01056508 0.07958403 -0.03157829 0.06040005
0000c0 b3 d3 b4 bc 85 fc 62 3d 44 fb 53 3d 59 d3 a7 3d
       -0.022073602 0.055416603 0.051753297 0.08194608
0000d0 ea b6 9e 3d cf b1 95 bc 85 eb 64 3d 4c 4f 9b 3d
       0.07749732 -0.018273262 0.05588867 0.07583484
0000e0 a6 24 82 3d 0d 41 84 bd 5c 38 a6 3d 39 d8 8a 3d
       0.063546464 -0.0645772 0.081162184 0.067795224
0000f0 c9 66 76 3d 6d 13 92 3c 7b 86 45 bd 14 f0 b9 3c
       0.060156617 0.017831529 -0.048223954 0.022697486
000100 37 df e0 bc cf 81 ec bb fc cb 3b 3d 64 91 cf 3c
       -0.027450187 -0.007217623 0.04584883 0.025337882
000110 f7 81 2e 3d 1e 2c dc 3b 5e ea 0e bd 74 a3 1f 3b
       0.042604413 0.0067191264 -0.03489148 0.00243589
000120 e5 6e cf bc f5 94 01 bc 91 0f 17 3d 4a a5 da bc
       -0.025321433 -0.007909049 0.03688008 -0.026690144
000130 bd d5 f4 bc 60 e2 81 bd 8a 2b b7 3c 7c 4f 91 3d
       -0.029887075 -0.06342006 0.022359628 0.070952386
000140 ef 82 55 3d 81 39 c5 bb e2 73 50 3d 62 77 85 bd
       0.05212682 -0.006018818 0.050891764 -0.06516911
000150 79 7c 92 3b b5 a2 25 bb 0d 6b 21 3d b2 5a 44 bc
       0.0044704047 -0.0025273983 0.039408732 -0.011984514
000160 16 2b 80 3d 0c df c3 3d 5f 8a 6d 3d a1 1e 38 bd
       0.06258218 0.09564027 0.05799329 -0.044951085
000170 9f 2d 6c bd 28 8b 38 bd 89 8a e3 bc 9d 84 66 3d
       -0.057660695 -0.045054585 -0.02777602 0.056278814
000180 3f 0e 48 3d 0a 1a b6 3d 2f 5b 10 bd 6d af 03 3d
       0.04884171 0.08891685 -0.03524321 0.03214972
000190 c1 5a 9e 3d 8f 99 ea bc 13 de 98 bc 70 7b 10 bd
       0.07732154 -0.028637676 -0.01866058 -0.03527397
0001a0 8e 13 46 bd cc d0 93 3d 4d 09 1e bc ec 2d e8 bb
       -0.048358493 0.07217559 -0.009645772 -0.0070855524
0001b0 0b 5d 95 3d 6e 11 81 bc b7 ff 51 3d 18 88 9c 3d
       0.07293137 -0.015755381 0.05126926 0.07643145
0001c0 86 c5 83 bc 96 1c 25 bc d9 5d 1d bc 4c 3a 1d bd
       -0.016085397 -0.010077616 -0.009604895 -0.038385674
0001d0 9a 3e d9 bc 58 84 75 bc 71 3a b1 3d b5 3d 8c 3b
       -0.026519109 -0.0149851665 0.08653725 0.004279817
0001e0 59 f1 45 3d d4 19 4b bd 79 9c a2 bc 06 04 58 3d
       0.04832587 -0.04958518 -0.019850003 0.052738212
0001f0 23 42 8b 3d e5 3f b6 3d 9a e6 20 bd 35 66 97 b9
       0.06799724 0.08898906 -0.03928242 -0.00028877115
000200 ca f0 54 bd 4d c9 77 bd 63 28 15 3d 7a 4c 30 bd
       -0.051987447 -0.06049471 0.03641547 -0.043041684
000210 d4 5c 1f bd a7 3e 36 bd 68 a3 ef 3c 98 a9 5c bd
       -0.038906887 -0.044493344 0.029252723 -0.053872675
000220 13 bf 8f bd 29 3d b4 bd 9a 84 85 bd 42 7a 2d 3c
       -0.070188664 -0.08800728 -0.06519432 0.010588231
000230 2a 1c 0c 3d 2a 8c 28 3d b5 1a d8 bd a6 80 9b bd
       0.034206547 0.041149296 -0.10551969 -0.07592897
000240 c7 c1 aa 3d 67 a0 28 bd a0 fe 8c bd 76 5f 7a bd
       0.08337741 -0.041168597 -0.06884503 -0.061126195
000250 80 fb 1e bd f6 6a 00 be 47 c0 77 bd 55 0f 2f bd
       -0.038814068 -0.12540802 -0.060486104 -0.04273923
000260 86 8e 52 bd d3 2e 86 bc 74 d1 2f bd 6c 04 39 3d
       -0.051405452 -0.01637975 -0.04292436 0.045170233
000270 1f 3e b0 bd 5c a3 f4 3c 6c 26 85 3c b8 30 e6 3c
       -0.08605599 0.029863052 0.016253673 0.028099403
000280 b7 34 d8 3c da f7 8f bd 57 11 55 bc df bd 45 3d
       0.026392324 -0.07029696 -0.013004622 0.04827678
000290 68 5c 71 bd 78 ec 2e bd ff 64 8b 3c 43 45 76 bd
       -0.058926016 -0.042705983 0.017015932 -0.060124647
0002a0 9b fa 3c bd ef f3 c6 3c 43 9a 91 bc e8 0b 18 bd
       -0.046137433 0.024286238 -0.017773753 -0.03712073
0002b0 d6 f7 98 bc cd 98 b3 bd 32 f2 3d 3d bd 04 7b bd
       -0.018672865 -0.08769379 0.046373554 -0.061283816
0002c0 ba af 2d 3d fc 3d 88 bd c8 d1 44 bd 56 8d c5 bd
       0.042403914 -0.066524476 -0.048051625 -0.09646098
0002d0 37 6b ab bd 0b e3 1c 3c b9 b5 48 bd cd bd 23 bd
       -0.08370059 0.009575616 -0.04900143 -0.03997593
0002e0 15 45 20 bd ab 4d 9e 3d 7b 96 b2 bd d3 b4 94 bd
       -0.03912838 0.07729658 -0.08720108 -0.07261052
0002f0 2b 91 77 bd 05 57 c9 bc 79 8c 61 3d 8a 02 47 bd
       -0.060441177 -0.024577627 0.055065606 -0.048586406
000300 46 2d 87 3c 48 dc 9f ba f5 89 95 bc 9a 05 87 bd
       0.01650108 -0.0012196386 -0.01825426 -0.06592865
000310 24 f3 53 bd f0 93 81 bb 84 8b db 3c 98 fc 0f ba
       -0.05174555 -0.003954403 0.026799925 -0.00054926565
000320 d3 ef 9e 3c 11 3f c8 3b 31 30 fa bc 08 e0 0f 3d
       0.019401466 0.0061110337 -0.030540558 0.035125762
000330 76 d3 06 3d b8 dd 59 3d f3 0d 25 bc d1 54 83 bd
       0.03291651 0.053189963 -0.0100741265 -0.06412662
000340 00 5a 3f bd 1f de 74 3c 16 44 7f bd 6b 7e 97 3d
       -0.04671669 0.014945536 -0.06232079 0.07397159
000350 a2 a6 27 bc 4d df 04 3d d8 06 1d bd 93 4f 05 3c
       -0.010232599 0.03243952 -0.038336605 0.008136648
000360 e5 e8 38 bd 64 bc ac bd 25 98 71 bd c2 0d 39 3d
       -0.04514398 -0.0843437 -0.058982987 0.045179136
000370 1d 23 4f 3d d2 24 80 3d 05 29 13 3d 64 05 4e bd
       0.050570596 0.06257023 0.03592779 -0.05029811
000380 fa 6b 88 bd a1 81 af bd fd 7e f7 3c e2 66 ef bc
       -0.0666122 -0.085696466 0.03021192 -0.029223863
000390 60 77 b6 bd e7 2f a7 3c d1 66 c1 3c 58 0b 1c 3d
       -0.08909488 0.020408584 0.023608597 0.038096756
0003a0 99 f9 1c 3d c0 db 65 bd 2e 8e 57 39 be 1d 0c 3c
       0.038323972 -0.056117773 0.00020556964 0.008552013
0003b0 4c db 55 bd 91 70 bd 3a 60 b8 f1 bc e3 96 7e bd
       -0.05221109 0.0014453103 -0.029506862 -0.062155616
0003c0 ba bb 48 3c 0a bb 6b 3c 1c 03 d3 3c 97 fd 12 3d
       0.012251789 0.014387855 0.025758319 0.035886373
0003d0 7a 9b 26 3c c3 8e 9e 3c 28 d7 a9 bd 56 95 c6 bb
       0.010168904 0.019355183 -0.08292991 -0.0060602827
0003e0 fe a2 81 bd e5 71 4b 3d e5 58 04 3d 8f f0 40 bd
       -0.063299164 0.049669165 0.03231134 -0.047104415
0003f0 3e 37 6b bd 58 7f b1 bd cd 33 b7 3c 71 f8 c1 bc
       -0.05742573 -0.08666867 0.022363568 -0.023678036

network_body.linear_encoder.seq_layers.0.bias f4 [128]
000000 7a 50 25 3d a8 6c e8 bc ef ed 1e bc 90 e2 a4 bb
       0.04035995 -0.028372124 -0.0097002825 -0.005031891
000010 b1 71 13 bc b1 53 2b 3d 0e 0c a6 3a e4 ac a0 3c
       -0.008999274 0.04182786 0.0012668387 0.01961369
000020 61 52 91 3b fd d9 04 3c 65 3e 1d 3d 54 e3 bf 3c
       0.004434869 0.008108613 0.038389582 0.023423828
000030 c3 7f e9 3c dd 30 83 ba 01 92 64 3d b2 b8 20 3d
       0.028503304 -0.0010009069 0.055803303 0.03923864
000040 23 8b 63 3c ea 2f 13 3d 11 e6 0a 3c b4 57 d1 bc
       0.013888153 0.035934366 0.008477704 -0.025554515
000050 60 80 36 bc af 7b 36 bc d1 0a 14 3d bc cf 0b 3d
       -0.011139005 -0.011137887 0.036143128 0.034133658
000060 6e e9 df 3c 0c 2f ca bc f5 59 b6 3c 63 f7 19 3d
       0.027332988 -0.024680637 0.022259692 0.037589442
000070 ed 6b be 3d a5 5a b1 3d bb 64 b0 ba 5d 0b 6d 3c
       0.09297929 0.08659867 -0.0013457754 0.014468041
000080 d1 92 48 39 1a 2c 46 3b e4 71 01 3c ef 5d 1e 3b
       0.0001912818 0.003023869 0.007900689 0.0024164876
000090 50 53 43 bc 57 7e e1 ba 1e 48 20 3d 9b 20 99 3d
       -0.011921719 -0.001720379 0.039131276 0.07476922
0000a0 b5 04 f4 3b 03 9a 1c 3c 3f 63 19 3d 0b c7 0a 3c
       0.00744685 0.009558204 0.037448164 0.008470307
0000b0 35 a2 57 3c 7b f2 b4 3c 52 4e c4 3b 82 83 93 3c
       0.013161232 0.02208828 0.005990782 0.018007044
0000c0 3d 6c 6d 3c 76 44 4c 3d 9e e9 98 3b 3c 90 09 3d
       0.014491138 0.049869977 0.004666521 0.03358482
0000d0 7d d9 65 3b 57 f0 81 3c bf b2 44 3c df f7 b3 3c
       0.003507226 0.015861673 0.012005507 0.02196878
0000e0 67 dd c4 3c ae dc dc 3b 3c 66 e4 3c b4 39 ae ba
       0.024031354 0.0067401743 0.02788078 -0.0013292343
0000f0 74 f9 5c bb 10 dd 42 3d dc a1 91 3b 95 ad f2 bb
       -0.0033718022 0.047574103 0.004444344 -0.0074059465
000100 31 0c 94 3c 6f b6 dc 3c ee d3 ce 3c 10 e0 2c bc
       0.01807222 0.02694246 0.02524754 -0.010551468
000110 c7 78 44 3c 7b be 05 3d 1c 9d 80 3b 15 ae 23 3c
       0.011991686 0.03265236 0.003924979 0.009990235
000120 38 e8 6b 3d 37 22 ee 3c 2e c7 94 3b 22 84 98 3c
       0.057594508 0.02906905 0.0045403456 0.018617693
000130 50 37 41 3c 5e 0f bd bb 78 09 a5 3c 9f 40 ce 3b
       0.011792973 -0.005769654 0.020146117 0.0062943245
000140 ca dd 1d bb 8b e8 89 3c 09 02 23 3c d0 23 a4 3d
       -0.0024088495 0.016834518 0.009949216 0.08014643
000150 81 fa 8c bc f6 82 42 3c 51 ac 26 3d 57 74 7f 3c
       -0.017209293 0.011872044 0.040691677 0.015591702
000160 1b d3 6c bc b1 69 2e 3d 7e a7 53 bc d0 1e 62 3c
       -0.014454628 0.042581264 -0.012918351 0.013801292
000170 f4 5b e9 3a 59 fa 20 bc 29 bd 3c 3d 4d 39 4f ba
       0.0017803893 -0.0098253125 0.046078835 -0.0007904962
000180 a2 e7 bd 3c 5b a6 cc 3c d2 9c 36 3c 31 6b 55 bc
       0.02318174 0.024981668 0.011145787 -0.013026045
000190 f7 07 ff 3c 32 ad af 3c 5b 8c b7 3c 0c 28 a5 3a
       0.031131728 0.02144489 0.022405794 0.0012600436
0001a0 09 21 55 bc 29 d7 03 3d fb 87 dc 3b 37 01 a4 3d
       -0.0130083645 0.032187615 0.0067300773 0.08008044
0001b0 6e 34 87 ba 77 a9 14 3a 9b 84 60 3c 7a d7 00 3d
       -0.0010315308 0.0005671004 0.013703491 0.031455494
0001c0 ea 92 1c 3d 49 cb d1 3c 78 96 b3 3c 69 59 ba bb
       0.038226046 0.02560963 0.021922335 -0.005686928
0001d0 2a 7d 27 39 9d 10 40 3a 4e cd 8a ba 5e 48 da bc
       0.00015972988 0.00073266943 -0.001058975 -0.026645835
0001e0 5b 8e 1f 3c 2a 60 7d 3d 82 d9 48 3d 6f b4 14 bc
       0.00973853 0.061859287 0.049035557 -0.009076222
0001f0 a8 5a 11 3d e4 84 34 3b 10 f0 fe 3c 2c 3c b7 3c
       0.035486847 0.002754503 0.03112033 0.02236756

network_body.linear_encoder.seq_layers.0.weight f4 [128, 42]
000000 b4 dd 9a bb e5 e8 66 be c6 a6 4a 3d b3 f4 36 3d
       -0.004726136 -0.2254978 0.049475454 0.044666957
000010 88 c0 00 be e9 ed 67 be 22 6d 72 3e 09 9e 4b 3d
       -0.12573445 -0.2264935 0.23674443 0.04971126
000020 0e 7b f2 3c e1 bc 9f bd ef 89 99 3e 4b f5 30 3e
       0.029599693 -0.07799698 0.29988047 0.17281072
000030 18 1d d6 bd 86 1a 8f bd b5 92 3d 3d 88 30 c3 bd
       -0.10454768 -0.06987481 0.04628249 -0.09530741
000040 0c 58 38 be fe 0b 38 3d 19 2d de be dc 30 28 be
       -0.18002337 0.04493331 -0.43393782 -0.16424888
000050 0c 5e 9c bd a1 4c b0 3b dc 8a c3 3d f8 63 17 3d
       -0.076351255 0.0053802286 0.0954797 0.036960572
000060 b8 d5 ab 3d e6 a2 ea bd 0c 34 07 3d 72 b4 65 3d
       0.08390373 -0.11456852 0.03300862 0.05608029
000070 cc a5 34 3e 8e 51 59 be 03 d0 e9 bd a8 27 73 bd
       0.17641371 -0.21222517 -0.11416628 -0.05936399
000080 13 39 f7 3d 51 93 66 3d eb ba 43 be 09 c4 b3 3e
       0.12071433 0.056292836 -0.19114272 0.351105
000090 c5 26 9f bc 1b 31 9d bd ce 80 77 be 20 48 d6 3d
       -0.019427666 -0.07675382 -0.24170229 0.104629755
0000a0 d3 41 0a 3e d3 ac 85 3d 81 63 88 3e 47 f0 94 3e
       0.13501672 0.06527104 0.26638415 0.29089567
0000b0 21 fc 58 bd 4b c3 aa 3a 62 ea 89 be 97 e2 00 3e
       -0.052974824 0.0013028173 -0.26936632 0.12586437
0000c0 c2 71 05 be 98 b5 5c 3d b3 e6 2e bd 08 8a 8c 3d
       -0.13031676 0.05388412 -0.04270048 0.06862265
0000d0 97 71 d5 bd 92 c2 8e bc c9 74 5d 3e 41 11 1c be
       -0.10422056 -0.017426763 0.21626581 -0.15240957
0000e0 4e 3f 32 be 1c 24 3b 3e 47 ee 7d 3e 11 c2 e7 3d
       -0.17406961 0.18275493 0.24797927 0.11316312
0000f0 12 e3 f2 bd 90 c4 22 3e 13 8d 3b bc a9 d2 6d bc
       -0.118597165 0.15895295 -0.011447209 -0.014515557
000100 03 b4 1f be a9 0f ae 3e 89 6a b9 bd 8f 61 d7 be
       -0.15596013 0.33996323 -0.09053523 -0.4206662
000110 3c f8 38 be 62 43 e0 bd 70 8d 29 3d 8b 0a 2e be
       -0.18063444 -0.10950352 0.04139465 -0.1699621
000120 4e 72 a2 3d 81 37 4c 3c 87 02 34 be 10 08 34 3d
       0.07931958 0.012464405 -0.17579089 0.043953
000130 e7 40 fa 3c 26 87 40 be 84 c9 31 3e 23 ea c8 bd
       0.030548526 -0.18801555 0.17362028 -0.09810283
000140 63 84 fe 3d 18 dc 01 3c 78 af 6e be 85 52 0b bd
       0.124275945 0.00792601 -0.23309124 -0.034014244
000150 c3 82 87 be 2d 56 f8 bc 39 76 c9 3d 7a fc a6 3e
       -0.2646695 -0.03031453 0.09837002 0.326145
000160 80 da 96 bb 34 d9 15 3e 7a 8e 5c bd 0d 56 8c 3e
       -0.004603684 0.14633638 -0.053846814 0.27409402
000170 92 38 a2 bd 91 43 ad bd bd 3f 26 be c5 ba 5c bc
       -0.07920946 -0.08460153 -0.16235252 -0.013472264
000180 18 bd ea be 0c 38 a8 bd f2 ea b4 3d 65 34 99 be
       -0.45847392 -0.08213815 0.08833875 -0.29922786
000190 3e 0a 88 bd 03 01 c3 3c 5b 6f 33 be 94 3e 79 3e
       -0.066425785 0.023804193 -0.17522947 0.24340278
0001a0 12 4a 76 3d 07 64 fa bd 50 64 de bd 3f 7e f1 bd
       0.060129233 -0.1222611 -0.10858977 -0.11791658
0001b0 3a 5d 10 bd 8d b8 ae 3d bc f4 9e 3d f5 2b f8 3d
       -0.035245158 0.08531294 0.07761523 0.12117759
0001c0 2d 94 cd bd da fe 28 be 1a 92 50 3e 90 12 9a bb
       -0.10038028 -0.16503468 0.20368233 -0.00470192
0001d0 c7 72 e4 bc 9a 67 23 bd eb a5 02 be 75 c9 1c be
       -0.027886761 -0.039893724 -0.12758605 -0.15311225
0001e0 9e 53 a5 3e 45 d3 06 bd 25 45 72 be a1 06 9f bd
       0.32290357 -0.032916326 -0.23659189 -0.07764936
0001f0 b5 41 65 be 8a 45 f2 3e 6c c8 5c bb 7d 6c 7c bd
       -0.22388346 0.4731868 -0.0033688797 -0.0616269
000200 5a 4b 14 3e dc 97 2b 3e ce 22 e9 3b f7 e4 b1 3d
       0.1448187 0.16757149 0.0071147447 0.0868625
000210 2a fc 46 be ee 52 8c 3c 7d 7b a3 3d 77 f9 6b bd
       -0.1943213 0.017129388 0.07982538 -0.057610955
000220 0c 23 9a bd 43 c6 8f 3d 91 01 dd 3b 92 5b 93 3d
       -0.07526216 0.07020237 0.0067445715 0.071952
000230 cf d2 00 be 67 b4 67 3e f8 f9 01 be 02 5c 8f be
       -0.12580417 0.22627412 -0.12693012 -0.27999884
000240 08 03 12 3e 52 84 e6 bd 85 11 18 be e2 be e7 3d
       0.14258969 -0.11255707 -0.14850433 0.11315705
000250 9a 23 72 be cc 48 36 be cd 52 06 be cf 46 8d 3d
       -0.23646393 -0.17801207 -0.13117523 0.06898271
000260 56 6e 00 3e 7f f5 2b 3e 0a 85 9a 3d 00 39 39 be
       0.1254209 0.16792868 0.075449064 -0.1808815
000270 2d 88 af bd 1a 62 95 3e ef 75 aa 3e 2b d2 f1 3d
       -0.08570895 0.29176408 0.332931 0.118076645
000280 8e 85 bb 3d 55 ce 24 3e c8 6c e3 bd 51 e5 c5 bd
       0.09156333 0.16094334 -0.11104733 -0.09662879
000290 f2 8c ae 3d af 38 8b ba fd a4 91 bd 96 f2 8a 3e
       0.08522977 -0.0010621751 -0.07111547 0.27138203
0002a0 cf a3 c6 bd 4c b5 30 3e bb 88 87 bd 81 24 33 3d
       -0.09699213 0.1725666 -0.06617876 0.043735985
0002b0 6e 43 01 3e 64 13 14 3d 08 46 52 3d ed 67 a5 bd
       0.12623379 0.036151305 0.05133632 -0.08076463
0002c0 b9 4a ea 3b e0 b5 c7 3e b9 9b 99 3e 3f 3d 36 ba
       0.007150021 0.39005947 0.3000162 -0.00069518754
0002d0 49 0f 3e 3e 56 52 6c be 48 9b ea 3c 72 ea 3e bc
       0.18560518 -0.23078284 0.028638497 -0.011652576
0002e0 97 d7 57 3e f7 0c 62 3d 1f 0a 74 3c 58 bf 69 3d
       0.21078335 0.055188145 0.014894991 0.057067245
0002f0 ea 10 a1 3e e9 c1 55 bb f1 e8 e2 bd 20 79 dd bc
       0.31458217 -0.00326168 -0.11079586 -0.027035296
000300 04 d2 e3 3d 95 ce 6c 3e c1 6e cd 3c ef f5 6a 3d
       0.11124042 0.2312568 0.025077226 0.057363447
000310 ef 42 48 bd 64 e8 0b be a6 49 c2 be a5 16 19 be
       -0.048891958 -0.13662869 -0.37946814 -0.14950044
000320 c3 8a 22 be 75 bd 68 bd 85 99 92 3e 94 f4 9a bd
       -0.15873246 -0.056821305 0.2863275 -0.07566181
000330 11 93 70 be c7 95 ce bd cb 0f 04 3e af d1 4f bd
       -0.23493601 -0.100871615 0.1289665 -0.05073708
000340 0d 2e 74 39 2a 44 2f bd 22 87 b4 be d1 c7 27 3e
       0.00023286809 -0.042789616 -0.35259348 0.16384818
000350 58 8d 30 bd fd 7c 94 3d 6c 49 f6 bc 25 38 c0 bc
       -0.043103546 0.07250402 -0.030064307 -0.023464272
000360 3b 69 1d 3d 7f 22 c7 bc bd 9c 65 3e 7f 64 08 be
       0.038430434 -0.024308441 0.22423072 -0.13319586
000370 81 f5 60 be ed b0 9d bd ee d9 d4 3c 82 10 9c bd
       -0.21968652 -0.076997615 0.025982823 -0.07620336
000380 ab cc 7e 3e 0c ac f5 3d bc bb 6b be c2 0b 96 bc
       0.24882762 0.11995706 -0.23020834 -0.018316153
000390 aa de b3 bd af ee 19 be b8 09 67 be b5 d9 b8 bc
       -0.08782704 -0.15032457 -0.22562301 -0.022564748
0003a0 80 0e e4 bd 0e ad 9b 3e 3f 08 41 be 4d b5 c8 bd
       -0.11135578 0.30405468 -0.18850802 -0.098002054
0003b0 8f b3 41 bc e3 6e 26 3e a1 dc 3e 3d 8c d2 3d be
       -0.011822595 0.16253237 0.046597127 -0.18537349
0003c0 ae 35 78 3e 11 22 dc 3c 7b c0 8d 3d 5c a7 c4 3d
       0.24239227 0.026871713 0.06921478 0.09602234
0003d0 a1 b1 5b bc 68 0a 80 bd a2 65 fe 3d 76 9e ff bc
       -0.013409049 -0.06251985 0.12421729 -0.03120349
0003e0 fa 63 4a be e2 39 00 bd cd 88 36 bd 1a 18 8c 3e
       -0.197647 -0.0313052 -0.044564057 0.27362138
0003f0 e0 50 30 3e 3c 92 e8 bc ec 94 69 be 36 57 46 bd
       0.17218351 -0.028390042 -0.22810715 -0.048423015

network_body.linear_encoder.seq_layers.2.bias f4 [128]
000000 93 92 f3 3b 7e a6 1e bb b7 03 80 3b 86 9a 0d 3b
       0.0074332445 -0.0024208124 0.003906693 0.0021606996
000010 f6 93 96 3c dc e4 b1 3b 0e a2 8e bc dd be 75 3c
       0.0183811 0.0054288935 -0.017411258 0.014999119
000020 55 7a 84 3c a1 68 c2 bb fb 44 97 3c d1 98 8e 3c
       0.016171614 -0.005932883 0.01846551 0.017406853
000030 4f b7 b6 ba fc 4d 75 bc 72 4d fa 3b 00 56 97 3c
       -0.0013940128 -0.014972206 0.0076386267 0.018473625
000040 e4 80 80 3b 48 86 57 3c 83 cf 56 3c 51 94 42 3c
       0.003921615 0.013154574 0.013110998 0.011876182
000050 92 06 85 bc 3e db 23 3c 7c 01 86 3c af 39 35 3c
       -0.016238485 0.010001002 0.01635813 0.011061116
000060 63 25 91 3c 89 6f 24 3c 30 88 7a 3c df 5b 9a 3b
       0.017718023 0.010036358 0.015291259 0.004710659
000070 fb ab b2 3c 35 f1 3d 39 05 fc 4e bc ea 4f 76 bc
       0.021810522 0.00018114301 -0.012633328 -0.015033701
000080 0f 1b ea 3b 08 f9 87 bc 4f 9b 5f bc 68 54 31 3d
       0.007144339 -0.01659824 -0.013647868 0.043293387
000090 11 c4 61 3c 14 58 76 3c 54 df c9 bc a2 77 a0 3c
       0.013779656 0.015035648 -0.024642624 0.019588295
0000a0 2e 42 8b 3c e9 db 0e bc ab cd 05 bc 6c 0a 80 3c
       0.01699933 -0.008719423 -0.008166711 0.01562997
0000b0 a4 3a 91 bc 6a bf ac 3c 2d 89 63 bc 20 2b a1 3c
       -0.017728157 0.021087367 -0.013887686 0.019673884
0000c0 e2 77 92 ba 25 1f 69 3c ef c4 96 3c aa 8c 94 3c
       -0.0011174644 0.014228617 0.018404452 0.01813348
0000d0 70 6e 99 3c af 4c 54 3c 2f fc 6b 3c 63 9f 54 3c
       0.018729419 0.012957736 0.014403387 0.012977454
0000e0 42 b9 9e 3c dd 55 b6 3c ab e2 ab 3c 46 56 98 3c
       0.019375447 0.02225774 0.020982107 0.018595826
0000f0 d1 a9 95 3c 8f 83 36 bb b4 75 e2 3c 46 2e 6f 3c
       0.018269451 -0.002784941 0.027644016 0.014598435
000100 06 2e 1d bd 5e 79 a0 ba 64 6d 46 3c 24 6b 30 3c
       -0.03837397 -0.0012243201 0.012111042 0.010767732
000110 af 99 8b 3c 7e 1f 19 bb 57 47 88 3c bd ad 6a 3b
       0.017041055 -0.0023364718 0.01663558 0.0035809122
000120 9f 87 5f bc 76 75 90 bc e9 2d 38 3c ee 68 e0 3c
       -0.013643174 -0.017634135 0.011241415 0.027393784
000130 e2 1f a7 3c ba 9c 04 3d 3d c1 34 bb 8f 2a 83 3c
       0.020400945 0.03237603 -0.0027581 0.016011504
000140 ef e1 11 3c 3d f3 dc bb 0e d7 66 3c 5d 0c d6 bb
       0.008903964 -0.0067428635 0.014089359 -0.0065322355
000150 00 f9 a9 3c ef d3 d6 3a 83 d5 79 3c c4 78 19 bb
       0.020748615 0.0016390065 0.015248659 -0.002341793
000160 23 93 83 3c cd c1 a1 3c ee 8e b2 3c b9 07 e5 3b
       0.016061371 0.019745732 0.02179667 0.006989446
000170 e5 50 47 3c 46 cf a3 3a 89 f7 8a 3c 75 9f 85 3c
       0.012165283 0.0012497685 0.016963737 0.016311387
000180 ec d9 55 3c c2 bc 56 3c b4 04 6f 3c a4 55 15 3c
       0.013052445 0.013106527 0.014588524 0.009114657
000190 2a 23 3b 3c 9b c6 3b bc 41 dc 8a bb 32 e2 0e 3d
       0.011421958 -0.011460925 -0.004237682 0.034883685
0001a0 3e 5b c0 3b 4c 31 9c bb a0 dd 6b 3c f2 a0 98 3c
       0.005870252 -0.004766619 0.014396101 0.018631432
0001b0 53 d9 8e 3c 38 9e 4f 3c cb e4 97 3c 81 5e 45 3c
       0.017437613 0.012672 0.018541714 0.012046457
0001c0 7e 8b 21 bc 60 21 54 bc b6 66 5b bc ca fb bc bb
       -0.009859918 -0.01294741 -0.013391187 -0.0057673203
0001d0 da ce 6b bc 9f 7d ad 3c 10 ca 88 3c 68 12 9c 3b
       -0.014392579 0.021178065 0.016697913 0.0047629364
0001e0 1d e9 9c 3c a5 3e 92 3c 82 a9 a1 3b 1f 89 4f 3c
       0.019154126 0.017852137 0.004933537 0.01266697
0001f0 15 5a a0 3c df 16 8b 3c f3 ab b5 3c 49 4e d3 bc
       0.019574204 0.01697868 0.022176718 -0.025794165

network_body.linear_encoder.seq_layers.2.weight f4 [128, 128]
000000 ff 6c ef bc 43 fa a8 bd 76 a3 d7 bc 7b 3d fb bc
       -0.029226778 -0.08250859 -0.026323061 -0.030668965
000010 fc df 1b 3e 1f 9e d3 bd f5 cd a4 3d 22 85 3d be
       0.15222162 -0.103328936 0.08047096 -0.18507817
000020 6f 92 d1 3d dd 7a dd bd 37 12 5d 3d c8 64 60 3d
       0.10233008 -0.1081445 0.05397245 0.054783612
000030 ac d1 a6 3d 79 13 06 be e3 c1 29 be e3 f7 e8 bd
       0.081454605 -0.13093366 -0.16577868 -0.11375406
000040 4a b8 97 3d 98 87 09 3e 29 e7 92 bc 63 af 23 bd
       0.07408197 0.13430631 -0.017932491 -0.039962184
000050 c2 f1 25 3d 8a 21 0a 3d 8b ac 42 bd fe 61 be bc
       0.04051376 0.03372339 -0.04752783 -0.023240086
000060 ef 0b 09 be d2 45 a0 3d b0 1a 1b bd d7 2e fe 3d
       -0.13383459 0.07825817 -0.037867248 0.12411278
000070 aa d1 96 bc c0 0e ed 3c 2b b6 07 bd 1d 34 bb 3d
       -0.018410522 0.028937697 -0.033132713 0.09140799
000080 d2 d4 21 bd 6a 71 12 3d fd cb 03 3e 17 84 9d 3c
       -0.039509602 0.03575269 0.12870784 0.019228024
000090 fd 1d 12 3e 09 c0 b6 3c b3 0d fa bd b5 b4 28 be
       0.14269252 0.022308366 -0.12209644 -0.16475184
0000a0 20 69 30 be ce 43 16 be 2d 95 a5 3e d9 ba 31 be
       -0.17227602 -0.14674303 0.32340375 -0.17356433
0000b0 6b 93 82 ba 08 29 ae 3d 1b 98 03 3e cb 9e bd 3d
       -0.0009962147 0.0850392 0.12850992 0.09258803
0000c0 95 0d 3c bd 04 0e 9c be bd e9 59 3d 9a 6d 58 be
       -0.04591139 -0.30479443 0.053201426 -0.2113556
0000d0 71 0c e7 3d 57 7a 18 be 0b 55 33 3d c3 da 72 bd
       0.1128167 -0.14890419 0.043782275 -0.05929066
0000e0 71 08 33 be 25 8e 6c 3c 92 5d 1c 3e 68 6e 3e 3d
       -0.17483689 0.014438187 0.15270069 0.04649201
0000f0 66 0f aa bd 35 00 30 3e 69 99 5c bc cf b9 f0 bd
       -0.08303718 0.17187579 -0.01346431 -0.1175419
000100 8f a1 d0 bd e0 e9 92 3e 89 ea ee 3d 4a 95 9a bc
       -0.10187065 0.28694057 0.11665828 -0.018870015
000110 71 3e 3e be 9b d0 90 3d 55 34 0f 3d 83 2f c3 3d
       -0.18578507 0.07071038 0.034962017 0.095305465
000120 e0 9b 9f 3c ad b8 5e 3d 33 ce 5c 3b ac 23 3c 3d
       0.019483507 0.05437534 0.003369224 0.045932457
000130 f4 fb 95 3d e4 21 03 be 8c 93 5c 3e 1b fe 87 3d
       0.07323447 -0.12805897 0.2154066 0.06640264
000140 f6 b9 15 3b 61 dc 4b 3e cf bc dd bd 88 95 03 be
       0.0022846437 0.19908287 -0.10827028 -0.1285001
000150 c3 f8 8b bd 39 21 53 3d e4 f2 98 bc 4d 01 7f 3c
       -0.06834557 0.051545355 -0.018670507 0.015564275
000160 e4 75 81 3c bb de 85 bd f3 f9 00 3e 19 ad 86 bd
       0.015803285 -0.06536623 0.12595348 -0.065759845
000170 4e 57 c3 bd 41 10 67 bd ca 0c 2b bd 49 46 f6 3d
       -0.095381364 -0.056411985 -0.041760243 0.120251246
000180 07 9a ad 3d 84 53 0f be bc 52 2b 3e ba 73 37 bd
       0.08476644 -0.13996702 0.1673078 -0.0447881
000190 02 2d 66 3d 5f 3f d3 bb ab 26 41 ba ff 5b d1 3d
       0.056195267 -0.0064467634 -0.00073681277 0.10222625
0001a0 ee a5 4c 3d 87 8f 27 3d 03 42 2f 3d 69 11 54 be
       0.04996293 0.040908363 0.042787563 -0.20709766
0001b0 47 9f ea bd d0 79 b4 3d db e2 7f bd b4 96 85 be
       -0.11456161 0.088122964 -0.062472206 -0.2609154
0001c0 a0 8d 6b bd 93 be 4b 3d 39 56 7a ba cc b8 a2 bd
       -0.05750811 0.049742293 -0.00095495913 -0.079454035
0001d0 77 d5 2d bd 05 31 8b bd 8b 79 0f be 15 a9 84 bd
       -0.042439904 -0.06796459 -0.14011209 -0.06477562
0001e0 14 37 d2 bc 3c d2 fd 3c 6e 06 a7 3b 69 d7 a0 3d
       -0.025661029 0.030984037 0.005097202 0.07853586
0001f0 bc a8 f9 bd 25 5c a4 3d 2f c6 d1 bd 42 86 59 3c
       -0.12190387 0.08025388 -0.10242879 0.013276638
000200 f3 74 08 be ad a3 59 3e 67 23 45 3e bd 36 9f bc
       -0.13325863 0.21253844 0.19251786 -0.019435281
000210 f7 58 c1 3c 05 0b 66 bd 7d f5 9e bd 4d 62 84 be
       0.023601992 -0.056162853 -0.07761667 -0.25856248
000220 f3 d6 3e 3e 78 0a 4d 3e dc 50 87 bd 29 8b 71 bd
       0.18636684 0.20023525 -0.066072196 -0.058970604
000230 e0 55 bf 3d 1d 60 ca bc c3 97 2a be 50 d9 5c bc
       0.09342551 -0.024704034 -0.16659455 -0.013479546
000240 a4 0a e1 bc f0 4d 07 3e 06 71 b6 3d a3 db 62 3d
       -0.027470894 0.13213325 0.08908276 0.055385243
000250 80 46 28 3c 6b 0f 8f 3e 66 a7 47 bd 09 24 6f be
       0.010270715 0.2794145 -0.048743628 -0.2335359
000260 f5 24 9f bd 40 29 41 3c 38 f0 5a 3e 6f f2 44 3e
       -0.07770721 0.01178962 0.21380699 0.19233106
000270 c3 1c 1f be 50 fa c8 bd 13 13 d0 bd 9e 91 4b 3e
       -0.15538315 -0.09813368 -0.10159888 0.19879767
000280 2f c4 44 3d 78 3a b2 3d 31 2b 22 be 21 f0 8f 3e
       0.048038658 0.08702558 -0.15836789 0.2811289
000290 c1 45 8a 3d 7b f7 09 3e 86 96 9f be cc 06 10 be
       0.06751586 0.13473313 -0.31169528 -0.14065093
0002a0 85 32 ce ba f6 39 e9 3d 0a 44 bc 3d 48 2a 99 bb
       -0.0015731609 0.11388008 0.09192665 -0.00467423
0002b0 27 83 ca 3d 7f d1 78 3d 54 f0 10 3d 9f 56 2c 3b
       0.098882966 0.060746666 0.035385445 0.0026296747
0002c0 f2 92 8d bd ec c4 a7 bd 63 fa 0c 3d 50 d1 03 be
       -0.06912793 -0.08191857 0.034418475 -0.12872815
0002d0 74 94 91 3c b6 80 d1 bc fc 32 69 3e e8 ff 17 3d
       0.017770983 -0.02557407 0.22773355 0.037109286
0002e0 1f 33 ac 3c ed 7c 06 3d a1 44 67 3d 16 32 94 3c
       0.02102047 0.032833982 0.056461934 0.01809029
0002f0 f2 b9 f7 3b 01 cf 9d 39 81 75 85 3d 68 04 78 be
       0.007560008 0.00030099603 0.06516553 -0.24220431
000300 54 62 29 3d 0c 72 29 3e 42 c5 03 3e 1d 60 87 bd
       0.04135354 0.16547412 0.12868217 -0.06610129
000310 68 68 8c 3c f3 97 aa 3d 4f 42 e5 3c ab 04 a7 bd
       0.017139629 0.08329763 0.02798572 -0.08155187
000320 3d e6 76 be fd eb 99 3d 71 a8 ef 3c 3c be 4d 3e
       -0.24111266 0.07515714 0.029255124 0.200921
000330 ed 89 da 3d c1 a1 e0 bd 5e 1e ba bb 98 0a f3 bd
       0.106708385 -0.10968352 -0.0056798896 -0.11867255
000340 04 4f bc 3d 66 a8 b7 3d 74 c6 84 3d 31 4c 3e be
       0.091947585 0.08967666 0.064831644 -0.18583752
000350 b7 58 3e ba a1 12 a0 bd 36 2b 6e 3c 2c ed 09 3b
       -0.00072611443 -0.07816053 0.0145366695 0.0021045906
000360 aa 61 9b bd 30 28 6a be 8f 1a a8 3d ae 7f 26 3e
       -0.07586987 -0.22866893 0.08208191 0.16259643
000370 f5 23 e2 3d 95 6e a5 bc 05 e0 9a 3d be 0d 8b 3b
       0.110420145 -0.020194331 0.075622596 0.0042435816
000380 2f e7 d0 3d 1e 58 9e 3b f9 fa f3 ba 37 66 4f bc
       0.10200345 0.0048322817 -0.0018614224 -0.012658647
000390 f3 16 0b 3e bd a4 5b 3d b7 e8 19 3d a8 57 e2 3c
       0.13582973 0.053623904 0.03757545 0.027629688
0003a0 af a4 48 bd 73 29 33 bd dc d5 4f 3d b4 73 eb bd
       -0.04898518 -0.0437407 0.05074106 -0.11496678
0003b0 e1 9c c5 bc 7b f5 3f bd 3f 7c 4c be c0 55 51 be
       -0.024122657 -0.046864968 -0.19969271 -0.20442867
0003c0 a2 e7 9f bd 8e ba 0f 3d 69 65 6f 3d 28 f0 1e be
       -0.07807852 0.03509002 0.05844632 -0.155213
0003d0 2a 03 28 ba 7b df 7f be 9b 9c 62 3a f9 6a da 3d
       -0.0006409163 -0.24987595 0.0008644552 0.10664935
0003e0 19 27 f2 3d 4b f5 91 bc ed d0 01 be a6 8a 8f 3d
       0.118238635 -0.01781716 -0.12677355 0.07008867
0003f0 e2 d0 e9 3c 0b 0b 76 3e d3 fc 0d be ae 20 ae bd
       0.028541986 0.2402765 -0.13865976 -0.08502327
