MLAgentsFB/Assets/MLAgents_FlappyBird/FlappyBird_1.onnx (onnx, 91137 bytes, 6 tensors)

distribution.branches.0.bias f4 [2]
0	0x3c812c9c	0.015768342
1	0xbc812c9c	-0.015768342

distribution.branches.0.weight f4 [2, 128]
0	0x3d0ac54b	0.03387956
1	0x3d306509	0.043065105
2	0xbd82142d	-0.063515045
3	0x3cf9a3a1	0.030473532
4	0x3d50ae8a	0.050947703
5	0x3d244271	0.040102426
6	0xbc202480	-0.009774327
7	0x3d4ff402	0.050769813
8	0x3d2500e3	0.04028405
9	0x3d11923d	0.035539854
10	0x3d081b58	0.033229202
11	0xbd0d92e9	-0.034563933
12	0xbc41b796	-0.011823555
13	0xbc45a430	-0.012063071
14	0x3d343b04	0.044001594
15	0x3d85bcf1	0.06530178
16	0xbc9f0d36	-0.01941548
17	0x3d49e1b7	0.049287524
18	0x3d4346c2	0.0476749
19	0x3d265514	0.04060848
20	0xbd3dafb5	-0.046310145
21	0x3d98bd53	0.07457986
22	0x3d61fa2c	0.055170223
23	0x3d1c64ad	0.03818195
24	0x3d0d6671	0.034521524
25	0xbbb0215c	-0.0053750705
26	0x3d0620a2	0.032745965
27	0xbd2ecc58	-0.042675346
28	0x3d78ab5d	0.0607103
29	0xbc7d7e8d	-0.015472067
30	0xbca9f030	-0.020744413
31	0xbcc768be	-0.024341937
32	0xbd4b6091	-0.04965264
33	0x3cb19b75	0.021680573
34	0xbcd59049	-0.026069777
35	0xbd7a7dbe	-0.061155073
36	0x3d132419	0.035923097
37	0xbc7a520c	-0.015278351
38	0xbc8d4e7e	-0.017249342
39	0x3d33541e	0.043781392
40	0x3d36d893	0.044640135
41	0xbc74c48a	-0.014939437
42	0xbc380e67	-0.011233903
43	0x3d2f4ef1	0.042799894
44	0x3c8116f5	0.015758017
45	0x3d58fdb3	0.05297632
46	0xbc6a8396	-0.014313599
47	0x3d24f99b	0.040277105
48	0xbc5e13a5	-0.013554488
49	0x3cff4fb3	0.031165933
50	0x3d2dc536	0.042424403
51	0x3d117a5d	0.035517085
52	0x3d74d486	0.05977299
53	0xbcc94ff7	-0.024574263
54	0x3d36acfc	0.044598565
55	0x3d84e267	0.06488495
56	0x3d36f1c1	0.04466415
57	0xbd88669a	-0.06660195
58	0x3d4a199e	0.049340837
59	0x3d52313d	0.05131649
60	0x3d581cc8	0.052761823
61	0xbc825819	-0.015911149
62	0xbd4c30e5	-0.049851317
63	0x3c979c7d	0.018507237
64	0xbccbabbc	-0.024862163
65	0xbc87189c	-0.016491227
66	0x3d49bce0	0.04925239
67	0x3b99abaf	0.0046896557
68	0x3ca78e59	0.020453619
69	0xbca093ba	-0.019601692
70	0xbd37e22a	-0.04489342
71	0xbcd93403	-0.026514059
72	0xbc809397	-0.015695376
73	0xbc874801	-0.016513826
74	0x3d047033	0.032333564
75	0xbd031e66	-0.032011412
76	0xbd140e39	-0.036146376
77	0xbd83c6dd	-0.064344145
78	0xbcbbac12	-0.022909198
79	0x3d63cd92	0.05561597
80	0x3d476ec9	0.048689637
81	0xbc8dba6f	-0.017300813
82	0x3d155128	0.03645435
83	0xbd023da8	-0.03179708
84	0xbc345691	-0.011006967
85	0x3bad5c65	0.0052905553
86	0x3cf12845	0.029438147
87	0xbcd89105	-0.026436338
88	0x3cbb917a	0.022896517
89	0x3d94c869	0.07264788
90	0x3d193311	0.037402216
91	0xbc5ce7ff	-0.013483047
92	0xbd1809b3	-0.037118625
93	0xbd39a327	-0.04532161
94	0xbce1b7e3	-0.027553504
95	0x3d3848e3	0.044991385
96	0x3cf77360	0.030206382
97	0x3d40cce0	0.047070384
98	0xbd23f5c0	-0.040029287
99	0x3cec44ac	0.028841339
100	0x3d1df556	0.03856405
101	0xbcb19f0e	-0.021682288
102	0xbc997558	-0.018732712
103	0xbcc9b56a	-0.024622638
104	0xbcf039ec	-0.029324494
105	0x3d15c121	0.036561135
106	0xbd0d901a	-0.034561254
107	0xbc4ea21e	-0.012611894
108	0x3d6eb065	0.05827369
109	0xbc75f4fc	-0.015012022
110	0x3d102cc2	0.035198934
111	0x3d978f1d	0.074003436
112	0xbcc9dcdf	-0.024641452
113	0xbce2d0e0	-0.02768749
114	0xbbf358f8	-0.0074263774
115	0xbced3905	-0.028957853
116	0xbd33a3f2	-0.043857522
117	0xbd029ae1	-0.031885985
118	0x3d955f82	0.07293607
119	0x3a4d916a	0.0007841798
120	0x3d05d600	0.03267479
121	0xbcd4a757	-0.0259587
122	0xbc7f3e93	-0.015578884
123	0x3d28b952	0.04119236
124	0x3d3ea203	0.046541225
125	0x3d3d73eb	0.046253126
126	0xbd3c5b13	-0.045985293
127	0x3aff3c9f	0.0019473023
128	0xbd045f9d	-0.032317746
129	0xbd39df84	-0.045379177
130	0x3d0e3fc1	0.03472877
131	0xbcfde794	-0.030994214
132	0xbd04e260	-0.03244245
133	0xbd27a15a	-0.04092536
134	0x3cfe0e60	0.031012714
135	0xbd533216	-0.051561438
136	0xbd6f8644	-0.058477655
137	0xbd33c3c0	-0.043887854
138	0xbd228cbb	-0.039684992
139	0x3ceb7b52	0.028745327
140	0x3c73eab5	0.0148875015
141	0x3c042889	0.008066305
142	0xbd200063	-0.03906287
143	0xbd2570d0	-0.04039079
144	0x3cd44728	0.025912836
145	0xbcdf83db	-0.027284553
146	0xbd8749c7	-0.06605869
147	0xbd2a068d	-0.041510154
148	0x3c63cfe4	0.013904545
149	0xbd98d419	-0.074623294
150	0xbd56d07b	-0.052444916
151	0xbcfeb190	-0.031090528
152	0xbcab1721	-0.020885052
153	0xbc146674	-0.00905763
154	0xbcd8ec2b	-0.026479801
155	0x3cceaf8c	0.025230192
156	0xbd6caea1	-0.057783727
157	0x3cf350f8	0.029701695
158	0x3cc04b32	0.023473356
159	0x3ce214ff	0.027597902
160	0x3ccc7ca3	0.024961775
161	0xbcb530bc	-0.022117965
162	0x3caede1c	0.021346144
163	0x3d730a77	0.059336152
164	0xbd3a100f	-0.04542547
165	0x3c36873d	0.011140642
166	0x3cd2927e	0.025704619
167	0xbd38b079	-0.045090172
168	0xbd22ac41	-0.039715055
169	0x3adc4c7c	0.0016807462
170	0x3bbce4ef	0.0057645957
171	0xbce72b21	-0.028218808
172	0xbcc3821c	-0.023865752
173	0xbd7a35b4	-0.06108637
174	0x3cee75c0	0.029108882
175	0xbd289862	-0.04116095
176	0x3d0acaff	0.033885
177	0xbd2d2726	-0.042273663
178	0xbd1e9bba	-0.03872273
179	0xbd4cee70	-0.05003208
180	0xbd871e89	-0.06597621
181	0x3c820fbc	0.015876643
182	0xbd1a7730	-0.037711322
183	0xbcedc78a	-0.029025812
184	0xbca5dad8	-0.020245954
185	0x3da27338	0.079321325
186	0xbd62d5d7	-0.055379715
187	0xbd65ea76	-0.056131802
188	0xbd59472f	-0.0530464
189	0x3c162929	0.009165087
190	0x3d6836e3	0.05669297
191	0xbd35d8bf	-0.04439616
192	0x3c63f339	0.013912969
193	0x3c03f4f6	0.008054009
194	0xbcb16bc7	-0.021657838
195	0xbd39780b	-0.045280498
196	0xbcf270a7	-0.029594732
197	0x3cb739bf	0.022366403
198	0x3d16bd82	0.036801822
199	0x3ce8a893	0.028400695
200	0x3c20294e	0.009775473
201	0x3c711a85	0.014715795
202	0xbcd4f17d	-0.025994057
203	0x3d25abaa	0.040446915
204	0x3d2076c3	0.03917576
205	0x3d5da693	0.054113936
206	0x3d10284a	0.035194673
207	0xbd47d836	-0.04879018
208	0xbd3145da	-0.043279506
209	0x3cd6db1f	0.026227532
210	0xbd442186	-0.047883533
211	0x3d264bc5	0.040599603
212	0x3babdc74	0.005244786
213	0x3cc9b327	0.02462156
214	0xbce85fd9	-0.028366016
215	0x3cb90b50	0.022588402
216	0xbbb2dc5b	-0.0054583973
217	0xbd7b4b71	-0.061351243
218	0xbd1d40d7	-0.038391914
219	0x3c60a487	0.013711101
220	0x3cf5fe78	0.030028567
221	0x3d80b0d1	0.06283725
222	0x3d123f95	0.035705168
223	0xbd1fc9aa	-0.03901068
224	0xbd44837d	-0.04797696
225	0xbd339c14	-0.04385002
226	0x3d0f5a11	0.034998003
227	0xbcd44cb8	-0.025915489
228	0xbd4e2ea8	-0.050337464
229	0x3c5c6ad5	0.013453205
230	0x3cc1fe16	0.023680728
231	0x3ce0d540	0.027445436
232	0x3c9e0617	0.019290013
233	0xbca7f6e1	-0.020503463
234	0x3ccdcad4	0.02512113
235	0x3c66a8da	0.014078343
236	0xbd19d186	-0.037553333
237	0x3a3806f3	0.00070200785
238	0xbc5c2497	-0.013436458
239	0xbd74a4bc	-0.059727415
240	0x3caa7520	0.020807803
241	0x3d031006	0.031997703
242	0x3cc12a58	0.023579761
243	0x3cd8bf9a	0.02645855
244	0x3ce15720	0.027507365
245	0x3d14812f	0.03625601
246	0xbd8dfc39	-0.06932873
247	0xbb2813a8	-0.0025646482
248	0xbd432ab8	-0.04764816
249	0x3cd55778	0.026042685
250	0x3ce5b43d	0.028040046
251	0xbd11a5ce	-0.035558514
252	0xbd13551e	-0.035969846
253	0xbd33f2bd	-0.043932665
254	0x3cee1c8e	0.02906635
255	0xbcd449cb	-0.025914093

network_body.linear_encoder.seq_layers.0.bias f4 [128]
0	0x3d08cc64	0.033398047
1	0xbd0d59e1	-0.034509543
2	0xbbf31b27	-0.0074190083
3	0xbc2f9dd9	-0.010718786
4	0x3ad8b187	0.00165324
5	0x3d35902e	0.044326954
6	0x3c3e0db0	0.011599943
7	0x3c8daf71	0.017295571
8	0xbcc696f4	-0.024241902
9	0x3c39d4e2	0.011342259
10	0x3d0beb5e	0.03416001
11	0x3d035e76	0.032072507
12	0x3cd92ee3	0.026511615
13	0x3ad8169e	0.0016486233
14	0x3d76248d	0.06009345
15	0xbb874cf2	-0.0041290456
16	0x3c78edfb	0.015193458
17	0x3d06fb52	0.03295452
18	0x3c4c4eb1	0.012469933
19	0xbcb05cc2	-0.021528605
20	0xbc111e87	-0.008857376
21	0xbc02d494	-0.007985253
22	0x3ccf0c6a	0.025274474
23	0x3cd570ac	0.026054703
24	0x3c00d423	0.007863077
25	0xbc726c1a	-0.014796281
26	0x3cb67d0e	0.022276428
27	0x3d32379f	0.043510076
28	0x3dc406ba	0.095715955
29	0x3daed66a	0.0853699
30	0x3bbb0786	0.005707684
31	0x3c90df07	0.017684473
32	0xbb23387f	-0.00249055
33	0x3c65e196	0.014030835
34	0x3c2b735c	0.010464516
35	0x3bb2c363	0.005455421
36	0xbc9c1565	-0.01905317
37	0x3c8706d5	0.01648275
38	0x3d29b06d	0.04142802
39	0x3d8961e7	0.067081265
40	0xbce832a3	-0.028344458
41	0x3c4390b3	0.011936354
42	0x3c927df4	0.017882325
43	0x3ca81866	0.020519447
44	0x3c4532ba	0.01203602
45	0x3bd10e6f	0.0063798944
46	0x3c632da0	0.013865858
47	0x3c9f9299	0.019479083
48	0x3c853b32	0.016263578
49	0x3d521673	0.05129094
50	0x3b8c7667	0.0042865756
51	0x3ca89f37	0.020583732
52	0x3c1dfcbe	0.009642778
53	0xbcd70541	-0.026247622
54	0x3c9d0e3a	0.019171823
55	0xbaab4183	-0.0013065789
56	0x3ca30d6b	0.01990386
57	0x3c3021b0	0.010750219
58	0x3cd1ae47	0.025595797
59	0xbcdcb1df	-0.026940284
60	0x3c63ef59	0.013912045
61	0x3d3d20e4	0.046173945
62	0x3c39732d	0.011318964
63	0x3bc16be8	0.005902756
64	0x3cb71f5c	0.02235382
65	0x3cdee097	0.027206702
66	0x3cdbf8ce	0.026852038
67	0x3c47ff8d	0.012206924
68	0xbc88fb54	-0.016721405
69	0x3d1903a1	0.037356976
70	0x3c19b268	0.009380914
71	0x3c95ba58	0.018277332
72	0x3d07c201	0.033144
73	0x3d018ed6	0.03163036
74	0x3c6a5b8a	0.014304051
75	0x3ce2a023	0.02766425
76	0x3c887920	0.01665932
77	0x3c1f90ca	0.00973911
78	0x3c941a59	0.01807897
79	0x3c1785b7	0.009248189
80	0x3ab89f28	0.0014085518
81	0x3c851ec3	0.01625002
82	0x3c1f2f65	0.00971589
83	0x3d95972a	0.07304223
84	0xbc353d32	-0.011061953
85	0x3c9245c4	0.017855532
86	0x3cdaf8f3	0.026730036
87	0x3cbf47aa	0.023349602
88	0xbbedaa82	-0.007252992
89	0x3d23b611	0.039968554
90	0xbcc8faf1	-0.02453372
91	0x3c8e9a23	0.017407482
92	0x3b93ee9e	0.0045145294
93	0xbbf79f22	-0.007556812
94	0x3d5da688	0.054113895
95	0x3bc6e8ac	0.006070217
96	0x3beaf07d	0.0071697817
97	0x3ca6a9cb	0.020344635
98	0x3c555dfb	0.013022895
99	0xbc48cab2	-0.012255358
100	0x3d026680	0.031836033
101	0x3c73ce48	0.014880724
102	0x3c799251	0.015232638
103	0xbc404380	-0.011734843
104	0xbc4a10b9	-0.012333089
105	0x3d14f11c	0.036362752
106	0x3ba08f16	0.0048998697
107	0x3d97df8e	0.074156865
108	0xbc637dd4	-0.01388498
109	0xbc00142e	-0.007817311
110	0x3ca82483	0.020525223
111	0x3c7c4a9f	0.01539865
112	0x3cfe1060	0.031013668
113	0x3d13e60e	0.03610807
114	0x3cdda4da	0.027056146
115	0x3c134575	0.008988728
116	0x3c373606	0.011182314
117	0xbb25e3c6	-0.0025312766
118	0xbbb2c3e6	-0.005455482
119	0xbcdb6c4c	-0.026785038
120	0x3caf076e	0.021365847
121	0x3d36464c	0.044500634
122	0x3ce538ee	0.027981248
123	0xbb85bf88	-0.00408167
124	0x3cea74b5	0.028620103
125	0x39cfdf97	0.00039648704
126	0x3d0cb18d	0.034349013
127	0x3cd712ab	0.026254019

network_body.linear_encoder.seq_layers.0.weight f4 [128, 42]
0	0xbc2609d6	-0.010134181
1	0xbe56b9b0	-0.20969272
2	0x3cc597d1	0.024120243
3	0x3d019702	0.031638153
4	0xbe13502f	-0.14386056
5	0xbe3851fe	-0.18000028
6	0x3e565f19	0.20934714
7	0x3d118be2	0.035533793
8	0x3ca2f9bc	0.019894473
9	0xbd10eb63	-0.035380732
10	0x3e8d85e8	0.27641225
11	0x3e237a3d	0.15964599
12	0xbdbea60b	-0.09309014
13	0xbd96b53c	-0.073587865
14	0xbcef18af	-0.029186575
15	0xbde2040e	-0.110359296
16	0xbe42941b	-0.1900181
17	0x3cde5f5e	0.027145084
18	0xbed10662	-0.40825182
19	0xbe3d9302	-0.1851311
20	0xbd90c4c2	-0.070687786
21	0xbc8fe3d8	-0.017564699
22	0xbd05e778	-0.03269145
23	0x3cdcef68	0.026969627
24	0x3d8ac74b	0.06776293
25	0xbdfba4b4	-0.12287274
26	0x3d0297b2	0.03188295
27	0x3d37a5a6	0.04483571
28	0x3e2d8d03	0.16948323
29	0xbe6da3d2	-0.23207024
30	0xbde94abe	-0.11391209
31	0xbd86982f	-0.065719955
32	0x3db1bce0	0.08678603
33	0x3d7ef596	0.062245928
34	0xbe474a3a	-0.19461909
35	0x3ea3cdc0	0.31992912
36	0xbd115298	-0.03547916
37	0xbdd29cf8	-0.10283846
38	0xbe45117d	-0.19244952
39	0x3dcb6b31	0.099325545
40	0x3e0eb05d	0.13934465
41	0x3e4dc810	0.20095849
42	0x3e859220	0.26088047
43	0x3e799887	0.24374591
44	0xbd2a07cb	-0.04151134
45	0xbd5c0784	-0.053718105
46	0xbe89b052	-0.26892334
47	0x3dc86826	0.0978549
48	0xbdf5c80c	-0.120010465
49	0x39056a9e	0.00012723586
50	0xbd45f169	-0.04832593
51	0x3d22f045	0.03977992
52	0xbda9f156	-0.08297984
53	0xbd951c11	-0.07280744
54	0x3e54be7c	0.20775789
55	0xbe031a4e	-0.12803003
56	0xbe335e32	-0.17516401
57	0x3e061f05	0.1309777
58	0x3e8144a8	0.25247693
59	0x3cd2d730	0.025737375
60	0xbe1ae19b	-0.15125124
61	0x3dd89340	0.10574961
62	0xbcca239c	-0.024675183
63	0xbc9c5d82	-0.019087557
64	0xbdc1c991	-0.09462274
65	0x3e96432f	0.29348132
66	0xbd671a42	-0.056421526
67	0xbf0001f7	-0.50003
68	0xbe6786b1	-0.22609974
69	0xbe2a2d03	-0.16618733
70	0x3ce1e4e9	0.027574973
71	0xbe202d0a	-0.15642181
72	0x3d9c5ab1	0.076344855
73	0xbc82c8bf	-0.015964864
74	0xbe0aab2a	-0.13541856
75	0xbc86dc79	-0.016462551
76	0x3cba80a0	0.022766411
77	0xbe3f9e35	-0.18712695
78	0x3e227824	0.15866143
79	0xbe17a536	-0.14809117
80	0x3daa892f	0.08326947
81	0xbbded5b2	-0.006800377
82	0xbe851527	-0.259927
83	0xbdb0bffa	-0.086303666
84	0xbe85d1e9	-0.2613671
85	0x3c3001d1	0.010742621
86	0x3db6f45b	0.08933326
87	0x3ea3a3ca	0.319609
88	0xbc99c1a5	-0.018769095
89	0x3e530e11	0.20610835
90	0xbd78c7f3	-0.06073756
91	0x3e87e6ef	0.26543376
92	0xbda229b7	-0.07918113
93	0xbd42f389	-0.047595534
94	0xbe2731ad	-0.16327544
95	0xbca20619	-0.019778298
96	0xbed85734	-0.4225403
97	0xbdae2431	-0.08502997
98	0x3da3b2f6	0.079931185
99	0xbe9f5171	-0.31116822
100	0xbce1d111	-0.027565511
101	0xbc46a7fa	-0.01212501
102	0xbe2cffa3	-0.16894393
103	0x3e66bfb8	0.22534072
104	0x3db91222	0.09036662
105	0xbe075a5f	-0.13218068
106	0xbe16a5d9	-0.14711703
107	0xbe050f0f	-0.12994026
108	0xbd4d4a4d	-0.050119687
109	0x3da7e74f	0.081984155
110	0x3db37c65	0.08763961
111	0x3dc86041	0.09783984
112	0xbdedf35b	-0.11618682
113	0xbe23dcd3	-0.16002207
114	0x3e51b5cd	0.20479508
115	0xbc143e53	-0.009048062
116	0xbd98cecb	-0.07461318
117	0xbcd8773f	-0.026424048
118	0xbde2cfc0	-0.110747814
119	0xbe2a4fc0	-0.16631985
120	0x3ea7fe80	0.32811356
121	0xbd20dd94	-0.039273813
122	0xbe79516f	-0.2434747
123	0xbd8d20a1	-0.06890989
124	0xbe608b36	-0.21928105
125	0x3ef350ab	0.47522482
126	0x3b156290	0.0022794344
127	0xbd4c3d21	-0.049862985
128	0x3df51e6e	0.119686946
129	0x3e13a040	0.144166
130	0xbb8813a7	-0.0041527334
131	0x3e4b466a	0.1985108
132	0xbe6184ba	-0.22023287
133	0xbc0563ca	-0.008141467
134	0x3dad893e	0.084734425
135	0xbd76f1f5	-0.060289342
136	0xbdc4991c	-0.09599516
137	0x3d405847	0.046959188
138	0x3ab8e0c6	0.0014105074
139	0x3d1a9713	0.03774173
140	0xbcaf5d5f	-0.021406827
141	0x3e4ec0b9	0.20190705
142	0xbde514f2	-0.111856356
143	0xbe95e170	-0.29273558
144	0x3db0baba	0.08629365
145	0xbe091ecf	-0.13390659
146	0xbe0acd0a	-0.13554779
147	0x3dbaee96	0.09127538
148	0xbe442c7e	-0.19157597
149	0xbe551a8d	-0.2081091
150	0xbe2e0f4e	-0.16998026
151	0x3db01020	0.085968256
152	0x3e192c5e	0.14958331
153	0x3e107d26	0.1411024
154	0x3d2d9e8d	0.042387534
155	0xbe30db92	-0.1727126
156	0xbda815c6	-0.08207278
157	0x3e8a12dc	0.26967514
158	0x3e9c28df	0.30499932
159	0x3df24a26	0.11830549
160	0x3e00dc89	0.12584127
161	0x3e24760b	0.16060655
162	0xbde6fac2	-0.11278297
163	0xbdd1dbca	-0.102469996
164	0x3da6c227	0.081425
165	0xbc671a6f	-0.014105423
166	0xbdba6bbf	-0.09102582
167	0x3e358ad3	0.17728738
168	0xbda22be1	-0.079185255
169	0x3dc85156	0.097811386
170	0xbd5b625b	-0.053560596
171	0x3d19a07b	0.03750656
172	0x3e20e7ed	0.15713473
173	0xbd75f772	-0.060050435
174	0x3d806617	0.06269472
175	0xbdad8361	-0.08472324
176	0x3ccf71cc	0.025322817
177	0x3ea63877	0.32464954
178	0x3e9fe6ac	0.31230676
179	0xbbf53ce7	-0.0074840668
180	0x3e395b39	0.18101205
181	0xbe4f7f01	-0.20263292
182	0x3d3cf954	0.046136215
183	0xbc8773c7	-0.0165347
184	0x3e71ca2c	0.23612279
185	0x3cee5449	0.029092925
186	0xbb3b2989	-0.0028558692
187	0x3d6e8451	0.058231656
188	0x3e93637e	0.28786844
189	0x3d1318ab	0.035912197
190	0xbd22ecf2	-0.03977675
191	0xbd248861	-0.040169124
192	0x3e37fe16	0.1796802
193	0x3e45e7a6	0.19326648
194	0x3c1a9b25	0.009436403
195	0x3d532235	0.051546294
196	0xbcdce58b	-0.026964923
197	0xbe07084b	-0.13186757
198	0xbec4a556	-0.3840739
199	0xbe3095a3	-0.17244582
200	0xbda07a90	-0.07835877
201	0xbdbea4cf	-0.093087785
202	0x3e80e02e	0.25171036
203	0xbd56addb	-0.052411895
204	0xbe767b20	-0.24070406
205	0xbdc8cdb7	-0.09804862
206	0x3d009c47	0.031399038
207	0xbd8084a8	-0.06275302
208	0xbc8c221b	-0.017106107
209	0xbe06742c	-0.13130254
210	0xbeb56435	-0.35428014
211	0x3e3bfbaa	0.18357721
212	0xbd13f5d9	-0.03612313
213	0x3da1c47c	0.078988045
214	0xbd4a6e35	-0.049421508
215	0x3d611e99	0.05496082
216	0x3d3b92b4	0.045794204
217	0xbc9d08b5	-0.01916919
218	0x3e625ca7	0.22105657
219	0xbdd1c289	-0.10242183
220	0xbe55ddf0	-0.20885444
221	0xbd90ba9c	-0.07066843
222	0x3d1cf6b3	0.03832121
223	0xbdb96304	-0.09052089
224	0x3e835e77	0.25658008
225	0x3dff87ed	0.12477098
226	0xbe5f470a	-0.21804443
227	0xbcda7d9d	-0.026671225
228	0xbdc1e702	-0.09467889
229	0xbe194acf	-0.14969943
230	0xbe4fcd4c	-0.20293158
231	0xbcea6a71	-0.028615208
232	0xbdf4615b	-0.119326316
233	0x3e9e9b92	0.30978066
234	0xbe645439	-0.22297753
235	0xbdafb0a8	-0.085786164
236	0xbbd44b55	-0.006478707
237	0x3e26853c	0.16261762
238	0x3d18c669	0.037298594
239	0xbe3a757e	-0.18208882
240	0x3e79a512	0.24379376
241	0x3d088d72	0.033338018
242	0x3d149d4a	0.036282815
243	0x3dd7959a	0.10526581
244	0xbd0b714c	-0.034043595
245	0xbd8a30a0	-0.06747556
246	0x3e05e65a	0.13076153
247	0xbcd92b18	-0.026509807
248	0xbe3679e6	-0.17819938
249	0xbcb173c4	-0.021661647
250	0xbcfa334b	-0.030542037
251	0x3e9f2d9f	0.31089494
252	0x3e351547	0.17683898
253	0xbcd96400	-0.026536942
254	0xbe5a65e0	-0.21327925
255	0xbd3e81d6	-0.04651054

network_body.linear_encoder.seq_layers.2.bias f4 [128]
0	0x3c0f9121	0.008762629
1	0x3b8dc48d	0.004326409
2	0x3bbf9a31	0.0058472385
3	0x3ba84360	0.005134985
4	0x3c9402fa	0.018067826
5	0x3c1d6d66	0.009608602
6	0xbc613374	-0.013745178
7	0x3c9d57c6	0.019206893
8	0x3ca8a834	0.020588018
9	0xbc5e9dae	-0.013587398
10	0x3c6b0484	0.014344338
11	0x3cee7213	0.02910713
12	0xbcba3c3e	-0.022733804
13	0xbc469828	-0.012121238
14	0x3b380732	0.002808046
15	0x3ca29287	0.01984526
16	0xbb5f967a	-0.003411679
17	0x3c8f4e68	0.017493442
18	0x3c9876b3	0.018611288
19	0x3c663cde	0.014052598
20	0xbb9c76b1	-0.0047748913
21	0x3c567cdc	0.013091292
22	0x3c9950f5	0.018715361
23	0x3c5c1c4d	0.013434482
24	0x3c74833d	0.014923868
25	0x3b947e5a	0.004531664
26	0x3c78e387	0.0151909655
27	0x3b7ec4cd	0.0038874627
28	0x3cda957f	0.026682613
29	0x3bc8fbc4	0.0061335284
30	0xbb368c1e	-0.0027854512
31	0xbc842572	-0.016131137
32	0x3c0cd105	0.008594756
33	0xbc969388	-0.018380895
34	0xbbccd3ef	-0.0062508504
35	0x3d4383c5	0.047733087
36	0x3c80162e	0.015635576
37	0x3cb0c849	0.021579878
38	0xbc359d74	-0.011084903
39	0x3c93e962	0.018055622
40	0x3c907141	0.017632129
41	0xbc3fffd4	-0.011718709
42	0x3c10b2da	0.008831704
43	0x3c8b8bae	0.017034378
44	0xbc628c7b	-0.0138274385
45	0x3ca7cdb1	0.020483823
46	0xbc16cf12	-0.009204643
47	0x3c895b1c	0.016767077
48	0x3b85f8f4	0.0040885154
49	0x3c83755b	0.01604717
50	0x3c8d8ab9	0.017278062
51	0x3c5d12fb	0.013493295
52	0x3cbd8838	0.023136243
53	0x3cce51a3	0.025185412
54	0x3c8b6de6	0.017020177
55	0x3c8b613c	0.017014138
56	0x3c8e8db0	0.017401546
57	0x3cb87915	0.022518674
58	0x3cb28b5c	0.021794967
59	0x3ca2b207	0.01986028
60	0x3cb9aea3	0.022666281
61	0x3bf9682b	0.0076112947
62	0x3cff152d	0.031138027
63	0x3c8ed6f3	0.01743648
64	0xbc3a68cb	-0.011377524
65	0x3b8598e7	0.0040770653
66	0x3c6d6c49	0.014491149
67	0x3c0fdbfc	0.008780476
68	0x3c746df0	0.014918789
69	0x3c1030b5	0.008800675
70	0x3cb5b871	0.022182675
71	0x3c97566d	0.018473828
72	0xbc47190c	-0.012151968
73	0xbc1aba31	-0.009443806
74	0x3c726e85	0.014796858
75	0x3d06bd07	0.032895114
76	0x3cdcd063	0.026954835
77	0x3d0be8a0	0.034157395
78	0x3c889b14	0.01667551
79	0x3ca04490	0.019563943
80	0x3c92c874	0.01791785
81	0xbb260ad6	-0.0025336049
82	0x3c8d8156	0.017273586
83	0xbb4273aa	-0.0029670992
84	0x3cda6d0b	0.026663324
85	0xbb12ca83	-0.0022398538
86	0x3c756eaf	0.014980002
87	0x3aef9293	0.0018277935
88	0x3c35a957	0.011087737
89	0x3cd2bac8	0.02572383
90	0x3ca1952a	0.019724447
91	0x3b1daec1	0.002406046
92	0x3b684eba	0.0035447315
93	0x3ba086a3	0.0048988624
94	0x3cad4d9c	0.021155171
95	0x3c883aca	0.016629595
96	0x3c89e904	0.016834743
97	0x3c515785	0.012777214
98	0x3ca17b28	0.019712046
99	0x3c8456ac	0.01615461
100	0x3c901fb5	0.017593244
101	0xbc7d7093	-0.015468734
102	0xbba7c0f0	-0.0051194355
103	0x3d11026a	0.035402693
104	0x3b80f779	0.003935751
105	0xbb932276	-0.004490192
106	0x3ccce004	0.025009163
107	0x3cad3b91	0.021146568
108	0x3ca9c80c	0.020725273
109	0x3be1559c	0.0068766605
110	0x3c8087e1	0.015689792
111	0x3cbe7dfe	0.023253437
112	0xbbb843dc	-0.005623324
113	0xbbc5ba80	-0.0060341954
114	0xbc4f1460	-0.012639135
115	0xbb875407	-0.00412989
116	0xbb9194fe	-0.00444281
117	0x3cfa5494	0.030557908
118	0x3cca925d	0.024727995
119	0x3c548917	0.012972138
120	0x3c87dfa2	0.016586129
121	0x3c8b85ca	0.017031569
122	0x3c3c7c97	0.011504314
123	0x3c97ee5c	0.018546276
124	0x3c5b3014	0.013378162
125	0x3c7ffa96	0.015623709
126	0x3ce78da0	0.028265774
127	0xbca915c4	-0.020640261

network_body.linear_encoder.seq_layers.2.weight f4 [128, 128]
0	0xbb8381c8	-0.004013274
1	0xbdd97a8f	-0.10619079
2	0xbd05fc21	-0.032711152
3	0xbd437272	-0.047716565
4	0x3e09ada5	0.13445146
5	0xbdfed7c4	-0.12443498
6	0x3d03a9e3	0.03214444
7	0xbe2e6fee	-0.17034885
8	0x3da0df3e	0.0785508
9	0xbdc4eafd	-0.09615133
10	0x3d81661f	0.06318306
11	0x3d8eed04	0.06978801
12	0x3d810702	0.06300165
13	0xbe16512d	-0.14679404
14	0xbe326050	-0.17419553
15	0xbdbb5cfc	-0.09148595
16	0x3d54136a	0.051776327
17	0x3dbad83b	0.09123274
18	0xbc82d727	-0.015971733
19	0xbc0e2f15	-0.008678217
20	0x3c2e087e	0.010622142
21	0x3cf1a66c	0.029498301
22	0x3c4cdac0	0.012503326
23	0xbbae75c7	-0.0053240987
24	0xbdbf75b6	-0.093486235
25	0x3db25cf8	0.08709139
26	0xbd664d8e	-0.056226306
27	0x3e00a8d6	0.12564406
28	0xbd0bcf4e	-0.034133248
29	0x3d2cfa2a	0.042230763
30	0xbd40b847	-0.04705074
31	0x3da1f6c2	0.079083934
32	0xbbcb6285	-0.006206813
33	0x3d5da539	0.054112647
34	0x3e161910	0.14657998
35	0x3befc2d6	0.0073169274
36	0x3e026ae9	0.12736095
37	0x3abb93ce	0.0014311017
38	0xbe00fd5f	-0.12596653
39	0xbe0ad5d6	-0.13558134
40	0xbe2b5bc4	-0.16734225
41	0xbe25cf60	-0.16192389
42	0x3e71220f	0.23548149
43	0xbe627274	-0.22113973
44	0xbceef951	-0.029171618
45	0x3d6f1706	0.058371566
46	0x3e084bce	0.13310167
47	0x3da0c4ed	0.078500606
48	0xbcd90b87	-0.026494754
49	0xbe9f8fc5	-0.31164375
50	0x3d35fb4d	0.044429112
51	0xbe465e05	-0.19371803
52	0x3de86ca4	0.113488466
53	0xbe12e5ca	-0.1434547
54	0x3d4fc659	0.05072627
55	0xbd88ae07	-0.06673818
56	0xbe1abed0	-0.15111852
57	0x3c87a66d	0.01655885
58	0x3e14fae9	0.1454884
59	0x3c909120	0.017647326
60	0xbda61645	-0.08109716
61	0x3e295c23	0.16539054
62	0x3b4bf7f5	0.0031123136
63	0xbde9bcd1	-0.11412967
64	0xbddcd95b	-0.10783645
65	0x3e95d66b	0.2926515
66	0x3de2cbf0	0.11074054
67	0x3c48082f	0.012208982
68	0xbe3d3221	-0.18476154
69	0x3d9e94eb	0.077432476
70	0x3d097c12	0.03356559
71	0x3dd33d36	0.103144094
72	0x3dea6518	0.11445063
73	0x3d6812ba	0.056658484
74	0x3c94c457	0.018160028
75	0x3d899c1b	0.06719228
76	0x3da07657	0.078350715
77	0xbdff539d	-0.1246712
78	0x3e576169	0.21033253
79	0x3d81b7ec	0.063339084
80	0x3b396675	0.002828983
81	0x3e3c6f4e	0.18401834
82	0xbda76d49	-0.08175141
83	0xbdb4c160	-0.08825946
84	0xbd73cc2e	-0.059520893
85	0x3d59a790	0.053138316
86	0xbd0d4dde	-0.034498088
87	0x3d278ce1	0.040905837
88	0x3c87bf25	0.016570637
89	0xbd465c83	-0.04842807
90	0x3dfa4111	0.12219442
91	0xbd9a5656	-0.075359985
92	0xbdc4272b	-0.09577783
93	0xbd9a2d74	-0.07528201
94	0xbcaf4241	-0.021393897
95	0x3dc07465	0.093972005
96	0x3ce45b5e	0.027875599
97	0xbde285e3	-0.11060693
98	0x3e1a47cd	0.15066452
99	0xbd5e78e1	-0.054314498
100	0x3d3b5b34	0.045741275
101	0x3d250c06	0.04029467
102	0x3cc07880	0.023494959
103	0x3d96b4d3	0.07358708
104	0x3d138261	0.03601301
105	0x3c4acf00	0.012378454
106	0x3d2664a7	0.040623333
107	0xbe2f193f	-0.17099474
108	0xbdd7c059	-0.10534734
109	0x3d9bee4c	0.07613811
110	0xbd88aa41	-0.06673098
111	0xbe54a3e8	-0.2076565
112	0xbc9920a9	-0.018692331
113	0x3d61b92f	0.055108245
114	0x3b1f90be	0.0024347748
115	0xbd775fe9	-0.0603942
116	0xbd44f69c	-0.048086748
117	0xbdcefe13	-0.101070546
118	0xbe11edb3	-0.14250831
119	0xbd7cbc58	-0.061703056
120	0x3c1e2c61	0.009654135
121	0xbbed8c11	-0.007249363
122	0x3d6c1d86	0.057645343
123	0x3d8f71de	0.0700414
124	0xbdda022e	-0.10644947
125	0x3d2d1ce1	0.04226387
126	0xbe0005fc	-0.12502283
127	0x3c928959	0.017887758
128	0xbde67b42	-0.11253978
129	0x3e3e0d5b	0.18559782
130	0x3e3ab275	0.18232138
131	0xbcd462a1	-0.025925936
132	0x3c01475b	0.007890548
133	0xbda19ea5	-0.07891587
134	0xbe01e692	-0.12685612
135	0xbe76daa1	-0.24106838
136	0x3e23485a	0.15945569
137	0x3e500646	0.20314893
138	0xbd13a6d8	-0.036047786
139	0xbd0f166a	-0.034933485
140	0x3d9c28e5	0.076249875
141	0xbd052791	-0.032508437
142	0xbe28d484	-0.16487318
143	0x3be99734	0.0071286205
144	0xbd280f8f	-0.041030463
145	0x3dbdea3c	0.09273192
146	0x3dbc8b24	0.092062265
147	0x3da040ec	0.07824883
148	0xbc806648	-0.015673772
149	0x3e89d5d5	0.26920953
150	0x3c8bddfa	0.01707362
151	0xbe52a5a6	-0.20571002
152	0xbd2fc935	-0.042916495
153	0x3c497a9b	0.012297298
154	0x3e4d2e7d	0.20037265
155	0x3e4f6cbf	0.20256327
156	0xbe2a3877	-0.16623102
157	0xbda2839d	-0.079352595
158	0xbdfa69f1	-0.12227238
159	0x3e41b603	0.18917088
160	0x3da725f0	0.08161533
161	0x3de3d82c	0.11125216
162	0xbe11eae6	-0.14249763
163	0x3e8aabe5	0.2708427
164	0x3d5c7944	0.053826585
165	0x3df6e08d	0.120545484
166	0xbea0084b	-0.31256327
167	0xbdcf497a	-0.101214364
168	0xba89dfc7	-0.0010518961
169	0x3dc5d45a	0.096596435
170	0x3b3c6d5d	0.002875171
171	0xbd5b792f	-0.053582367
172	0x3d9510fb	0.072786294
173	0x3cfc65e0	0.030810297
174	0x3d1d0741	0.038336996
175	0xbb7853d4	-0.0037891762
176	0xbd5318f7	-0.05153748
177	0xbd9f6990	-0.07783806
178	0x3cdd5a62	0.027020637
179	0xbdd33b51	-0.10314048
180	0x3c9d0138	0.01916562
181	0xbccb2e8b	-0.024802467
182	0x3e704343	0.23463158
183	0x3ceaec61	0.028677167
184	0x3d37a866	0.04483833
185	0x3d2acdc5	0.041700143
186	0x3d4f831f	0.050662156
187	0xbc802bc5	-0.015645871
188	0x3c655587	0.013997442
189	0xbb2fe663	-0.0026840202
190	0x3da218d3	0.07914891
191	0xbe6d1a18	-0.23154485
192	0x3d292b5e	0.041301124
193	0x3e308d28	0.17241347
194	0x3e02f89e	0.12790152
195	0xbd077054	-0.03306611
196	0x3c5c1aa9	0.013434091
197	0x3db1aa93	0.086751126
198	0x3cf12150	0.02943483
199	0xbd9c69c5	-0.076373614
200	0xbe1ae62e	-0.15126869
201	0x3d9da54f	0.07697546
202	0x3d47ac23	0.048748147
203	0x3e6d5207	0.23175822
204	0x3dee1c27	0.116264634
205	0xbdd46e15	-0.10372559
206	0xbc131725	-0.008977686
207	0xbdf3e6f3	-0.119092844
208	0x3dd815f9	0.10551066
209	0x3da14f82	0.07876493
210	0x3db91467	0.090370946
211	0xbe12d421	-0.14338733
212	0x3b364b35	0.0027815823
213	0xbd88cfd7	-0.06680267
214	0xb9d29157	-0.00040162608
215	0x3d1f76e9	0.03893176
216	0xbdac5499	-0.08414573
217	0xbe4fedf8	-0.20305622
218	0x3d95c803	0.0731354
219	0x3e1b7e8f	0.15184997
220	0x3dddcc2f	0.108299606
221	0xbd111009	-0.035415683
222	0x3dc907ff	0.09815978
223	0xbbea0de5	-0.0071427696
224	0x3d45c2b6	0.048281394
225	0x3d1298d0	0.035790265
226	0xbc2b5d50	-0.010459259
227	0xbcb398d5	-0.021923462
228	0x3dfe5796	0.124190494
229	0x3dd705d7	0.10499161
230	0x3d73616a	0.059419073
231	0xbada3217	-0.0016647008
232	0xbd845f96	-0.06463544
233	0xbd8f915d	-0.07010148
234	0x3d62407c	0.05523728
235	0xbd91590e	-0.07097064
236	0xbc763bcc	-0.015028905
237	0xbd728a29	-0.05921379
238	0xbe4a8818	-0.19778478
239	0xbe1e8bcc	-0.15483016
240	0xbd184a57	-0.03718027
241	0x3d9a8558	0.075449646
242	0x3d885f44	0.066587955
243	0xbe0f8dec	-0.14018983
244	0xbc4382c9	-0.011933037
245	0xbe8c5ac7	-0.27413008
246	0xbbd0d22f	-0.006372712
247	0x3dd20e43	0.102566265
248	0x3e201f3f	0.1563692
249	0xbd89659d	-0.06708834
250	0xbda7f4db	-0.08200999
251	0x3d84f9f2	0.06492986
252	0x3d2ae467	0.041721728
253	0x3e533888	0.20627034
254	0xbe1f0ead	-0.15532942
255	0xbd97459e	-0.07386325
